{"format": "graph-model", "generatedBy": "2.6.0", "convertedBy": "TensorFlow.js Converter v3.9.0", "signature": {"inputs": {"input:0": {"name": "input:0", "dtype": "DT_UINT8", "tensorShape": {"dim": [{"size": "1"}, {"size": "224"}, {"size": "224"}, {"size": "3"}]}}}, "outputs": {"coords": {"name": "coords:0", "dtype": "DT_FLOAT", "tensorShape": {"dim": [{"size": "1"}, {"size": "21"}, {"size": "2"}]}}, "classes": {"name": "classes:0", "dtype": "DT_FLOAT", "tensorShape": {"dim": [{"size": "1"}, {"size": "4"}, {"size": "2"}]}}, "confidence": {"name": "confidence:0", "dtype": "DT_FLOAT", "tensorShape": {"dim": [{"size": "1"}]}}}}, "modelTopology": {"node": [{"name": "Const_1", "op": "Const", "attr": {"value": {"tensor": {"dtype": "DT_FLOAT", "tensorShape": {"dim": [{"size": "7"}, {"size": "7"}, {"size": "256"}, {"size": "8"}]}}}, "dtype": {"type": "DT_FLOAT"}}}, {"name": "Const", "op": "Const", "attr": {"value": {"tensor": {"dtype": "DT_FLOAT", "tensorShape": {"dim": [{"size": "8"}]}}}, "dtype": {"type": "DT_FLOAT"}}}, {"name": "Const_92", "op": "Const", "attr": {"value": {"tensor": {"dtype": "DT_INT64", "tensorShape": {"dim": [{"size": "3"}]}}}, "dtype": {"type": "DT_INT64"}}}, {"name": "Const_102", "op": "Const", "attr": {"value": {"tensor": {"dtype": "DT_FLOAT", "tensorShape": {}}}, "dtype": {"type": "DT_FLOAT"}}}, {"name": "Const_101", "op": "Const", "attr": {"value": {"tensor": {"dtype": "DT_INT32", "tensorShape": {"dim": [{"size": "2"}]}}}, "dtype": {"type": "DT_INT32"}}}, {"name": "Const_100", "op": "Const", "attr": {"dtype": {"type": "DT_INT32"}, "value": {"tensor": {"dtype": "DT_INT32", "tensorShape": {}}}}}, {"name": "Const_99", "op": "Const", "attr": {"value": {"tensor": {"dtype": "DT_FLOAT", "tensorShape": {"dim": [{"size": "7"}]}}}, "dtype": {"type": "DT_FLOAT"}}}, {"name": "Const_89", "op": "Const", "attr": {"dtype": {"type": "DT_FLOAT"}, "value": {"tensor": {"dtype": "DT_FLOAT", "tensorShape": {"dim": [{"size": "1"}, {"size": "1"}, {"size": "72"}, {"size": "144"}]}}}}}, {"name": "Const_88", "op": "Const", "attr": {"value": {"tensor": {"dtype": "DT_FLOAT", "tensorShape": {"dim": [{"size": "144"}]}}}, "dtype": {"type": "DT_FLOAT"}}}, {"name": "Const_87", "op": "Const", "attr": {"dtype": {"type": "DT_FLOAT"}, "value": {"tensor": {"dtype": "DT_FLOAT", "tensorShape": {"dim": [{"size": "3"}, {"size": "3"}, {"size": "144"}, {"size": "1"}]}}}}}, {"name": "Const_86", "op": "Const", "attr": {"value": {"tensor": {"dtype": "DT_FLOAT", "tensorShape": {"dim": [{"size": "144"}]}}}, "dtype": {"type": "DT_FLOAT"}}}, {"name": "Const_85", "op": "Const", "attr": {"value": {"tensor": {"dtype": "DT_FLOAT", "tensorShape": {"dim": [{"size": "1"}, {"size": "1"}, {"size": "144"}, {"size": "72"}]}}}, "dtype": {"type": "DT_FLOAT"}}}, {"name": "Const_84", "op": "Const", "attr": {"value": {"tensor": {"dtype": "DT_FLOAT", "tensorShape": {"dim": [{"size": "72"}]}}}, "dtype": {"type": "DT_FLOAT"}}}, {"name": "Const_83", "op": "Const", "attr": {"dtype": {"type": "DT_FLOAT"}, "value": {"tensor": {"dtype": "DT_FLOAT", "tensorShape": {}}}}}, {"name": "Const_82", "op": "Const", "attr": {"dtype": {"type": "DT_FLOAT"}, "value": {"tensor": {"dtype": "DT_FLOAT", "tensorShape": {}}}}}, {"name": "Const_81", "op": "Const", "attr": {"value": {"tensor": {"dtype": "DT_FLOAT", "tensorShape": {"dim": [{"size": "3"}, {"size": "3"}, {"size": "3"}, {"size": "40"}]}}}, "dtype": {"type": "DT_FLOAT"}}}, {"name": "Const_80", "op": "Const", "attr": {"value": {"tensor": {"dtype": "DT_FLOAT", "tensorShape": {"dim": [{"size": "40"}]}}}, "dtype": {"type": "DT_FLOAT"}}}, {"name": "Const_79", "op": "Const", "attr": {"value": {"tensor": {"dtype": "DT_FLOAT", "tensorShape": {"dim": [{"size": "3"}, {"size": "3"}, {"size": "40"}, {"size": "1"}]}}}, "dtype": {"type": "DT_FLOAT"}}}, {"name": "Const_78", "op": "Const", "attr": {"value": {"tensor": {"dtype": "DT_FLOAT", "tensorShape": {"dim": [{"size": "40"}]}}}, "dtype": {"type": "DT_FLOAT"}}}, {"name": "Const_77", "op": "Const", "attr": {"dtype": {"type": "DT_FLOAT"}, "value": {"tensor": {"dtype": "DT_FLOAT", "tensorShape": {"dim": [{"size": "1"}, {"size": "1"}, {"size": "40"}, {"size": "40"}]}}}}}, {"name": "Const_76", "op": "Const", "attr": {"value": {"tensor": {"dtype": "DT_FLOAT", "tensorShape": {"dim": [{"size": "40"}]}}}, "dtype": {"type": "DT_FLOAT"}}}, {"name": "Const_75", "op": "Const", "attr": {"dtype": {"type": "DT_FLOAT"}, "value": {"tensor": {"dtype": "DT_FLOAT", "tensorShape": {"dim": [{"size": "3"}, {"size": "3"}, {"size": "40"}, {"size": "1"}]}}}}}, {"name": "Const_74", "op": "Const", "attr": {"dtype": {"type": "DT_FLOAT"}, "value": {"tensor": {"dtype": "DT_FLOAT", "tensorShape": {"dim": [{"size": "40"}]}}}}}, {"name": "Const_73", "op": "Const", "attr": {"value": {"tensor": {"dtype": "DT_FLOAT", "tensorShape": {"dim": [{"size": "1"}, {"size": "1"}, {"size": "40"}, {"size": "40"}]}}}, "dtype": {"type": "DT_FLOAT"}}}, {"name": "Const_72", "op": "Const", "attr": {"dtype": {"type": "DT_FLOAT"}, "value": {"tensor": {"dtype": "DT_FLOAT", "tensorShape": {"dim": [{"size": "40"}]}}}}}, {"name": "Const_71", "op": "Const", "attr": {"dtype": {"type": "DT_FLOAT"}, "value": {"tensor": {"dtype": "DT_FLOAT", "tensorShape": {"dim": [{"size": "3"}, {"size": "3"}, {"size": "40"}, {"size": "1"}]}}}}}, {"name": "Const_70", "op": "Const", "attr": {"value": {"tensor": {"dtype": "DT_FLOAT", "tensorShape": {"dim": [{"size": "40"}]}}}, "dtype": {"type": "DT_FLOAT"}}}, {"name": "Const_69", "op": "Const", "attr": {"value": {"tensor": {"dtype": "DT_FLOAT", "tensorShape": {"dim": [{"size": "1"}, {"size": "1"}, {"size": "40"}, {"size": "40"}]}}}, "dtype": {"type": "DT_FLOAT"}}}, {"name": "Const_68", "op": "Const", "attr": {"dtype": {"type": "DT_FLOAT"}, "value": {"tensor": {"dtype": "DT_FLOAT", "tensorShape": {"dim": [{"size": "40"}]}}}}}, {"name": "Const_67", "op": "Const", "attr": {"dtype": {"type": "DT_FLOAT"}, "value": {"tensor": {"dtype": "DT_FLOAT", "tensorShape": {"dim": [{"size": "1"}, {"size": "1"}, {"size": "40"}, {"size": "80"}]}}}}}, {"name": "Const_66", "op": "Const", "attr": {"value": {"tensor": {"dtype": "DT_FLOAT", "tensorShape": {"dim": [{"size": "80"}]}}}, "dtype": {"type": "DT_FLOAT"}}}, {"name": "Const_65", "op": "Const", "attr": {"value": {"tensor": {"dtype": "DT_FLOAT", "tensorShape": {"dim": [{"size": "3"}, {"size": "3"}, {"size": "80"}, {"size": "1"}]}}}, "dtype": {"type": "DT_FLOAT"}}}, {"name": "Const_64", "op": "Const", "attr": {"dtype": {"type": "DT_FLOAT"}, "value": {"tensor": {"dtype": "DT_FLOAT", "tensorShape": {"dim": [{"size": "80"}]}}}}}, {"name": "Const_63", "op": "Const", "attr": {"dtype": {"type": "DT_FLOAT"}, "value": {"tensor": {"dtype": "DT_FLOAT", "tensorShape": {"dim": [{"size": "1"}, {"size": "1"}, {"size": "80"}, {"size": "72"}]}}}}}, {"name": "Const_62", "op": "Const", "attr": {"dtype": {"type": "DT_FLOAT"}, "value": {"tensor": {"dtype": "DT_FLOAT", "tensorShape": {"dim": [{"size": "72"}]}}}}}, {"name": "Const_61", "op": "Const", "attr": {"dtype": {"type": "DT_FLOAT"}, "value": {"tensor": {"dtype": "DT_FLOAT", "tensorShape": {"dim": [{"size": "1"}, {"size": "1"}, {"size": "72"}, {"size": "144"}]}}}}}, {"name": "Const_60", "op": "Const", "attr": {"value": {"tensor": {"dtype": "DT_FLOAT", "tensorShape": {"dim": [{"size": "144"}]}}}, "dtype": {"type": "DT_FLOAT"}}}, {"name": "Const_59", "op": "Const", "attr": {"value": {"tensor": {"dtype": "DT_FLOAT", "tensorShape": {"dim": [{"size": "3"}, {"size": "3"}, {"size": "144"}, {"size": "1"}]}}}, "dtype": {"type": "DT_FLOAT"}}}, {"name": "Const_58", "op": "Const", "attr": {"dtype": {"type": "DT_FLOAT"}, "value": {"tensor": {"dtype": "DT_FLOAT", "tensorShape": {"dim": [{"size": "144"}]}}}}}, {"name": "Const_57", "op": "Const", "attr": {"value": {"tensor": {"dtype": "DT_FLOAT", "tensorShape": {"dim": [{"size": "1"}, {"size": "1"}, {"size": "144"}, {"size": "72"}]}}}, "dtype": {"type": "DT_FLOAT"}}}, {"name": "Const_56", "op": "Const", "attr": {"value": {"tensor": {"dtype": "DT_FLOAT", "tensorShape": {"dim": [{"size": "72"}]}}}, "dtype": {"type": "DT_FLOAT"}}}, {"name": "Const_55", "op": "Const", "attr": {"value": {"tensor": {"dtype": "DT_FLOAT", "tensorShape": {"dim": [{"size": "1"}, {"size": "1"}, {"size": "72"}, {"size": "144"}]}}}, "dtype": {"type": "DT_FLOAT"}}}, {"name": "Const_54", "op": "Const", "attr": {"value": {"tensor": {"dtype": "DT_FLOAT", "tensorShape": {"dim": [{"size": "144"}]}}}, "dtype": {"type": "DT_FLOAT"}}}, {"name": "Const_53", "op": "Const", "attr": {"dtype": {"type": "DT_FLOAT"}, "value": {"tensor": {"dtype": "DT_FLOAT", "tensorShape": {"dim": [{"size": "3"}, {"size": "3"}, {"size": "144"}, {"size": "1"}]}}}}}, {"name": "Const_52", "op": "Const", "attr": {"value": {"tensor": {"dtype": "DT_FLOAT", "tensorShape": {"dim": [{"size": "144"}]}}}, "dtype": {"type": "DT_FLOAT"}}}, {"name": "Const_51", "op": "Const", "attr": {"dtype": {"type": "DT_FLOAT"}, "value": {"tensor": {"dtype": "DT_FLOAT", "tensorShape": {"dim": [{"size": "1"}, {"size": "1"}, {"size": "144"}, {"size": "72"}]}}}}}, {"name": "Const_50", "op": "Const", "attr": {"value": {"tensor": {"dtype": "DT_FLOAT", "tensorShape": {"dim": [{"size": "72"}]}}}, "dtype": {"type": "DT_FLOAT"}}}, {"name": "Const_49", "op": "Const", "attr": {"dtype": {"type": "DT_FLOAT"}, "value": {"tensor": {"dtype": "DT_FLOAT", "tensorShape": {"dim": [{"size": "1"}, {"size": "1"}, {"size": "72"}, {"size": "216"}]}}}}}, {"name": "Const_48", "op": "Const", "attr": {"dtype": {"type": "DT_FLOAT"}, "value": {"tensor": {"dtype": "DT_FLOAT", "tensorShape": {"dim": [{"size": "216"}]}}}}}, {"name": "Const_47", "op": "Const", "attr": {"dtype": {"type": "DT_FLOAT"}, "value": {"tensor": {"dtype": "DT_FLOAT", "tensorShape": {"dim": [{"size": "3"}, {"size": "3"}, {"size": "216"}, {"size": "1"}]}}}}}, {"name": "Const_46", "op": "Const", "attr": {"value": {"tensor": {"dtype": "DT_FLOAT", "tensorShape": {"dim": [{"size": "216"}]}}}, "dtype": {"type": "DT_FLOAT"}}}, {"name": "Const_45", "op": "Const", "attr": {"dtype": {"type": "DT_FLOAT"}, "value": {"tensor": {"dtype": "DT_FLOAT", "tensorShape": {"dim": [{"size": "1"}, {"size": "1"}, {"size": "216"}, {"size": "152"}]}}}}}, {"name": "Const_44", "op": "Const", "attr": {"dtype": {"type": "DT_FLOAT"}, "value": {"tensor": {"dtype": "DT_FLOAT", "tensorShape": {"dim": [{"size": "152"}]}}}}}, {"name": "Const_43", "op": "Const", "attr": {"value": {"tensor": {"dtype": "DT_FLOAT", "tensorShape": {"dim": [{"size": "1"}, {"size": "1"}, {"size": "152"}, {"size": "456"}]}}}, "dtype": {"type": "DT_FLOAT"}}}, {"name": "Const_42", "op": "Const", "attr": {"value": {"tensor": {"dtype": "DT_FLOAT", "tensorShape": {"dim": [{"size": "456"}]}}}, "dtype": {"type": "DT_FLOAT"}}}, {"name": "Const_41", "op": "Const", "attr": {"dtype": {"type": "DT_FLOAT"}, "value": {"tensor": {"dtype": "DT_FLOAT", "tensorShape": {"dim": [{"size": "3"}, {"size": "3"}, {"size": "456"}, {"size": "1"}]}}}}}, {"name": "Const_40", "op": "Const", "attr": {"value": {"tensor": {"dtype": "DT_FLOAT", "tensorShape": {"dim": [{"size": "456"}]}}}, "dtype": {"type": "DT_FLOAT"}}}, {"name": "Const_39", "op": "Const", "attr": {"value": {"tensor": {"dtype": "DT_FLOAT", "tensorShape": {"dim": [{"size": "1"}, {"size": "1"}, {"size": "456"}, {"size": "152"}]}}}, "dtype": {"type": "DT_FLOAT"}}}, {"name": "Const_38", "op": "Const", "attr": {"dtype": {"type": "DT_FLOAT"}, "value": {"tensor": {"dtype": "DT_FLOAT", "tensorShape": {"dim": [{"size": "152"}]}}}}}, {"name": "Const_37", "op": "Const", "attr": {"value": {"tensor": {"dtype": "DT_FLOAT", "tensorShape": {"dim": [{"size": "1"}, {"size": "1"}, {"size": "152"}, {"size": "456"}]}}}, "dtype": {"type": "DT_FLOAT"}}}, {"name": "Const_36", "op": "Const", "attr": {"value": {"tensor": {"dtype": "DT_FLOAT", "tensorShape": {"dim": [{"size": "456"}]}}}, "dtype": {"type": "DT_FLOAT"}}}, {"name": "Const_35", "op": "Const", "attr": {"value": {"tensor": {"dtype": "DT_FLOAT", "tensorShape": {"dim": [{"size": "3"}, {"size": "3"}, {"size": "456"}, {"size": "1"}]}}}, "dtype": {"type": "DT_FLOAT"}}}, {"name": "Const_34", "op": "Const", "attr": {"value": {"tensor": {"dtype": "DT_FLOAT", "tensorShape": {"dim": [{"size": "456"}]}}}, "dtype": {"type": "DT_FLOAT"}}}, {"name": "Const_33", "op": "Const", "attr": {"value": {"tensor": {"dtype": "DT_FLOAT", "tensorShape": {"dim": [{"size": "1"}, {"size": "1"}, {"size": "456"}, {"size": "152"}]}}}, "dtype": {"type": "DT_FLOAT"}}}, {"name": "Const_32", "op": "Const", "attr": {"value": {"tensor": {"dtype": "DT_FLOAT", "tensorShape": {"dim": [{"size": "152"}]}}}, "dtype": {"type": "DT_FLOAT"}}}, {"name": "Const_31", "op": "Const", "attr": {"dtype": {"type": "DT_FLOAT"}, "value": {"tensor": {"dtype": "DT_FLOAT", "tensorShape": {"dim": [{"size": "1"}, {"size": "1"}, {"size": "152"}, {"size": "456"}]}}}}}, {"name": "Const_30", "op": "Const", "attr": {"value": {"tensor": {"dtype": "DT_FLOAT", "tensorShape": {"dim": [{"size": "456"}]}}}, "dtype": {"type": "DT_FLOAT"}}}, {"name": "Const_29", "op": "Const", "attr": {"value": {"tensor": {"dtype": "DT_FLOAT", "tensorShape": {"dim": [{"size": "3"}, {"size": "3"}, {"size": "456"}, {"size": "1"}]}}}, "dtype": {"type": "DT_FLOAT"}}}, {"name": "Const_28", "op": "Const", "attr": {"dtype": {"type": "DT_FLOAT"}, "value": {"tensor": {"dtype": "DT_FLOAT", "tensorShape": {"dim": [{"size": "456"}]}}}}}, {"name": "Const_27", "op": "Const", "attr": {"value": {"tensor": {"dtype": "DT_FLOAT", "tensorShape": {"dim": [{"size": "1"}, {"size": "1"}, {"size": "456"}, {"size": "152"}]}}}, "dtype": {"type": "DT_FLOAT"}}}, {"name": "Const_26", "op": "Const", "attr": {"value": {"tensor": {"dtype": "DT_FLOAT", "tensorShape": {"dim": [{"size": "152"}]}}}, "dtype": {"type": "DT_FLOAT"}}}, {"name": "Const_25", "op": "Const", "attr": {"dtype": {"type": "DT_FLOAT"}, "value": {"tensor": {"dtype": "DT_FLOAT", "tensorShape": {"dim": [{"size": "1"}, {"size": "1"}, {"size": "152"}, {"size": "608"}]}}}}}, {"name": "Const_24", "op": "Const", "attr": {"dtype": {"type": "DT_FLOAT"}, "value": {"tensor": {"dtype": "DT_FLOAT", "tensorShape": {"dim": [{"size": "608"}]}}}}}, {"name": "Const_23", "op": "Const", "attr": {"value": {"tensor": {"dtype": "DT_FLOAT", "tensorShape": {"dim": [{"size": "3"}, {"size": "3"}, {"size": "608"}, {"size": "1"}]}}}, "dtype": {"type": "DT_FLOAT"}}}, {"name": "Const_22", "op": "Const", "attr": {"value": {"tensor": {"dtype": "DT_FLOAT", "tensorShape": {"dim": [{"size": "608"}]}}}, "dtype": {"type": "DT_FLOAT"}}}, {"name": "Const_21", "op": "Const", "attr": {"value": {"tensor": {"dtype": "DT_FLOAT", "tensorShape": {"dim": [{"size": "1"}, {"size": "1"}, {"size": "608"}, {"size": "256"}]}}}, "dtype": {"type": "DT_FLOAT"}}}, {"name": "Const_20", "op": "Const", "attr": {"dtype": {"type": "DT_FLOAT"}, "value": {"tensor": {"dtype": "DT_FLOAT", "tensorShape": {"dim": [{"size": "256"}]}}}}}, {"name": "Const_19", "op": "Const", "attr": {"dtype": {"type": "DT_FLOAT"}, "value": {"tensor": {"dtype": "DT_FLOAT", "tensorShape": {"dim": [{"size": "1"}, {"size": "1"}, {"size": "256"}, {"size": "1024"}]}}}}}, {"name": "Const_18", "op": "Const", "attr": {"dtype": {"type": "DT_FLOAT"}, "value": {"tensor": {"dtype": "DT_FLOAT", "tensorShape": {"dim": [{"size": "1024"}]}}}}}, {"name": "Const_17", "op": "Const", "attr": {"dtype": {"type": "DT_FLOAT"}, "value": {"tensor": {"dtype": "DT_FLOAT", "tensorShape": {"dim": [{"size": "3"}, {"size": "3"}, {"size": "1024"}, {"size": "1"}]}}}}}, {"name": "Const_16", "op": "Const", "attr": {"value": {"tensor": {"dtype": "DT_FLOAT", "tensorShape": {"dim": [{"size": "1024"}]}}}, "dtype": {"type": "DT_FLOAT"}}}, {"name": "Const_15", "op": "Const", "attr": {"dtype": {"type": "DT_FLOAT"}, "value": {"tensor": {"dtype": "DT_FLOAT", "tensorShape": {"dim": [{"size": "1"}, {"size": "1"}, {"size": "1024"}, {"size": "256"}]}}}}}, {"name": "Const_14", "op": "Const", "attr": {"dtype": {"type": "DT_FLOAT"}, "value": {"tensor": {"dtype": "DT_FLOAT", "tensorShape": {"dim": [{"size": "256"}]}}}}}, {"name": "Const_13", "op": "Const", "attr": {"dtype": {"type": "DT_FLOAT"}, "value": {"tensor": {"dtype": "DT_FLOAT", "tensorShape": {"dim": [{"size": "1"}, {"size": "1"}, {"size": "256"}, {"size": "1024"}]}}}}}, {"name": "Const_12", "op": "Const", "attr": {"value": {"tensor": {"dtype": "DT_FLOAT", "tensorShape": {"dim": [{"size": "1024"}]}}}, "dtype": {"type": "DT_FLOAT"}}}, {"name": "Const_11", "op": "Const", "attr": {"dtype": {"type": "DT_FLOAT"}, "value": {"tensor": {"dtype": "DT_FLOAT", "tensorShape": {"dim": [{"size": "3"}, {"size": "3"}, {"size": "1024"}, {"size": "1"}]}}}}}, {"name": "Const_10", "op": "Const", "attr": {"value": {"tensor": {"dtype": "DT_FLOAT", "tensorShape": {"dim": [{"size": "1024"}]}}}, "dtype": {"type": "DT_FLOAT"}}}, {"name": "Const_9", "op": "Const", "attr": {"dtype": {"type": "DT_FLOAT"}, "value": {"tensor": {"dtype": "DT_FLOAT", "tensorShape": {"dim": [{"size": "1"}, {"size": "1"}, {"size": "1024"}, {"size": "256"}]}}}}}, {"name": "Const_8", "op": "Const", "attr": {"dtype": {"type": "DT_FLOAT"}, "value": {"tensor": {"dtype": "DT_FLOAT", "tensorShape": {"dim": [{"size": "256"}]}}}}}, {"name": "Const_7", "op": "Const", "attr": {"value": {"tensor": {"dtype": "DT_FLOAT", "tensorShape": {"dim": [{"size": "1"}, {"size": "1"}, {"size": "256"}, {"size": "1024"}]}}}, "dtype": {"type": "DT_FLOAT"}}}, {"name": "Const_6", "op": "Const", "attr": {"value": {"tensor": {"dtype": "DT_FLOAT", "tensorShape": {"dim": [{"size": "1024"}]}}}, "dtype": {"type": "DT_FLOAT"}}}, {"name": "Const_5", "op": "Const", "attr": {"dtype": {"type": "DT_FLOAT"}, "value": {"tensor": {"dtype": "DT_FLOAT", "tensorShape": {"dim": [{"size": "3"}, {"size": "3"}, {"size": "1024"}, {"size": "1"}]}}}}}, {"name": "Const_4", "op": "Const", "attr": {"dtype": {"type": "DT_FLOAT"}, "value": {"tensor": {"dtype": "DT_FLOAT", "tensorShape": {"dim": [{"size": "1024"}]}}}}}, {"name": "Const_3", "op": "Const", "attr": {"value": {"tensor": {"dtype": "DT_FLOAT", "tensorShape": {"dim": [{"size": "1"}, {"size": "1"}, {"size": "1024"}, {"size": "256"}]}}}, "dtype": {"type": "DT_FLOAT"}}}, {"name": "Const_2", "op": "Const", "attr": {"dtype": {"type": "DT_FLOAT"}, "value": {"tensor": {"dtype": "DT_FLOAT", "tensorShape": {"dim": [{"size": "256"}]}}}}}, {"name": "Const_91", "op": "Const", "attr": {"dtype": {"type": "DT_FLOAT"}, "value": {"tensor": {"dtype": "DT_FLOAT", "tensorShape": {"dim": [{"size": "1"}, {"size": "1"}, {"size": "256"}, {"size": "21"}]}}}}}, {"name": "Const_90", "op": "Const", "attr": {"value": {"tensor": {"dtype": "DT_FLOAT", "tensorShape": {"dim": [{"size": "21"}]}}}, "dtype": {"type": "DT_FLOAT"}}}, {"name": "Const_93", "op": "Const", "attr": {"value": {"tensor": {"dtype": "DT_INT32", "tensorShape": {"dim": [{"size": "4"}]}}}, "dtype": {"type": "DT_INT32"}}}, {"name": "Const_95", "op": "Const", "attr": {"value": {"tensor": {"dtype": "DT_INT64", "tensorShape": {"dim": [{"size": "2"}]}}}, "dtype": {"type": "DT_INT64"}}}, {"name": "Const_94", "op": "Const", "attr": {"dtype": {"type": "DT_INT64"}, "value": {"tensor": {"dtype": "DT_INT64", "tensorShape": {"dim": [{"size": "4"}]}}}}}, {"name": "Const_98", "op": "Const", "attr": {"value": {"tensor": {"dtype": "DT_INT32", "tensorShape": {}}}, "dtype": {"type": "DT_INT32"}}}, {"name": "Const_97", "op": "Const", "attr": {"dtype": {"type": "DT_INT32"}, "value": {"tensor": {"dtype": "DT_INT32", "tensorShape": {"dim": [{"size": "2"}]}}}}}, {"name": "Const_96", "op": "Const", "attr": {"dtype": {"type": "DT_INT32"}, "value": {"tensor": {"dtype": "DT_INT32", "tensorShape": {}}}}}, {"name": "input", "op": "Placeholder", "attr": {"dtype": {"type": "DT_UINT8"}, "shape": {"shape": {"dim": [{"size": "1"}, {"size": "224"}, {"size": "224"}, {"size": "3"}]}}}}, {"name": "Cast", "op": "Cast", "input": ["input"], "attr": {"DstT": {"type": "DT_FLOAT"}, "Truncate": {"b": false}, "SrcT": {"type": "DT_UINT8"}}}, {"name": "Mul", "op": "Mul", "input": ["Cast", "Const_83"], "attr": {"T": {"type": "DT_FLOAT"}}}, {"name": "Sub", "op": "Sub", "input": ["Mul", "Const_82"], "attr": {"T": {"type": "DT_FLOAT"}}}, {"name": "Relu", "op": "_FusedConv2D", "input": ["Sub", "Const_81", "Const_80"], "device": "/device:CPU:0", "attr": {"dilations": {"list": {"i": ["1", "1", "1", "1"]}}, "padding": {"s": "U0FNRQ=="}, "data_format": {"s": "TkhXQw=="}, "num_args": {"i": "1"}, "epsilon": {"f": 0.0}, "explicit_paddings": {"list": {}}, "use_cudnn_on_gpu": {"b": true}, "T": {"type": "DT_FLOAT"}, "strides": {"list": {"i": ["1", "2", "2", "1"]}}, "fused_ops": {"list": {"s": ["Qmlhc0FkZA==", "UmVsdQ=="]}}}}, {"name": "DepthwiseConv2dNative", "op": "FusedDepthwiseConv2dNative", "input": ["Relu", "Const_79", "Const_78"], "attr": {"T": {"type": "DT_FLOAT"}, "data_format": {"s": "TkhXQw=="}, "explicit_paddings": {"list": {}}, "num_args": {"i": "1"}, "fused_ops": {"list": {"s": ["Qmlhc0FkZA==", "UmVsdQ=="]}}, "strides": {"list": {"i": ["1", "2", "2", "1"]}}, "dilations": {"list": {"i": ["1", "1", "1", "1"]}}, "padding": {"s": "U0FNRQ=="}}}, {"name": "BiasAdd_2", "op": "_FusedConv2D", "input": ["DepthwiseConv2dNative", "Const_77", "Const_76"], "device": "/device:CPU:0", "attr": {"num_args": {"i": "1"}, "use_cudnn_on_gpu": {"b": true}, "strides": {"list": {"i": ["1", "1", "1", "1"]}}, "T": {"type": "DT_FLOAT"}, "fused_ops": {"list": {"s": ["Qmlhc0FkZA=="]}}, "dilations": {"list": {"i": ["1", "1", "1", "1"]}}, "epsilon": {"f": 0.0}, "explicit_paddings": {"list": {}}, "padding": {"s": "VkFMSUQ="}, "data_format": {"s": "TkhXQw=="}}}, {"name": "DepthwiseConv2dNative_1", "op": "FusedDepthwiseConv2dNative", "input": ["BiasAdd_2", "Const_75", "Const_74"], "attr": {"strides": {"list": {"i": ["1", "1", "1", "1"]}}, "padding": {"s": "U0FNRQ=="}, "explicit_paddings": {"list": {}}, "dilations": {"list": {"i": ["1", "1", "1", "1"]}}, "fused_ops": {"list": {"s": ["Qmlhc0FkZA==", "UmVsdQ=="]}}, "T": {"type": "DT_FLOAT"}, "data_format": {"s": "TkhXQw=="}, "num_args": {"i": "1"}}}, {"name": "BiasAdd_4", "op": "_FusedConv2D", "input": ["DepthwiseConv2dNative_1", "Const_73", "Const_72"], "device": "/device:CPU:0", "attr": {"padding": {"s": "VkFMSUQ="}, "explicit_paddings": {"list": {}}, "use_cudnn_on_gpu": {"b": true}, "T": {"type": "DT_FLOAT"}, "fused_ops": {"list": {"s": ["Qmlhc0FkZA=="]}}, "strides": {"list": {"i": ["1", "1", "1", "1"]}}, "epsilon": {"f": 0.0}, "dilations": {"list": {"i": ["1", "1", "1", "1"]}}, "data_format": {"s": "TkhXQw=="}, "num_args": {"i": "1"}}}, {"name": "AddV2", "op": "AddV2", "input": ["BiasAdd_2", "BiasAdd_4"], "attr": {"T": {"type": "DT_FLOAT"}}}, {"name": "DepthwiseConv2dNative_2", "op": "FusedDepthwiseConv2dNative", "input": ["AddV2", "Const_71", "Const_70"], "attr": {"fused_ops": {"list": {"s": ["Qmlhc0FkZA==", "UmVsdQ=="]}}, "T": {"type": "DT_FLOAT"}, "dilations": {"list": {"i": ["1", "1", "1", "1"]}}, "explicit_paddings": {"list": {}}, "num_args": {"i": "1"}, "data_format": {"s": "TkhXQw=="}, "strides": {"list": {"i": ["1", "1", "1", "1"]}}, "padding": {"s": "U0FNRQ=="}}}, {"name": "BiasAdd_6", "op": "_FusedConv2D", "input": ["DepthwiseConv2dNative_2", "Const_69", "Const_68"], "device": "/device:CPU:0", "attr": {"explicit_paddings": {"list": {}}, "dilations": {"list": {"i": ["1", "1", "1", "1"]}}, "padding": {"s": "VkFMSUQ="}, "strides": {"list": {"i": ["1", "1", "1", "1"]}}, "fused_ops": {"list": {"s": ["Qmlhc0FkZA=="]}}, "use_cudnn_on_gpu": {"b": true}, "num_args": {"i": "1"}, "data_format": {"s": "TkhXQw=="}, "T": {"type": "DT_FLOAT"}, "epsilon": {"f": 0.0}}}, {"name": "AddV2_1", "op": "AddV2", "input": ["AddV2", "BiasAdd_6"], "attr": {"T": {"type": "DT_FLOAT"}}}, {"name": "Relu_4", "op": "_FusedConv2D", "input": ["AddV2_1", "Const_67", "Const_66"], "device": "/device:CPU:0", "attr": {"explicit_paddings": {"list": {}}, "epsilon": {"f": 0.0}, "data_format": {"s": "TkhXQw=="}, "T": {"type": "DT_FLOAT"}, "use_cudnn_on_gpu": {"b": true}, "dilations": {"list": {"i": ["1", "1", "1", "1"]}}, "strides": {"list": {"i": ["1", "1", "1", "1"]}}, "fused_ops": {"list": {"s": ["Qmlhc0FkZA==", "UmVsdQ=="]}}, "padding": {"s": "VkFMSUQ="}, "num_args": {"i": "1"}}}, {"name": "DepthwiseConv2dNative_3", "op": "FusedDepthwiseConv2dNative", "input": ["Relu_4", "Const_65", "Const_64"], "attr": {"data_format": {"s": "TkhXQw=="}, "explicit_paddings": {"list": {}}, "padding": {"s": "U0FNRQ=="}, "T": {"type": "DT_FLOAT"}, "strides": {"list": {"i": ["1", "2", "2", "1"]}}, "num_args": {"i": "1"}, "dilations": {"list": {"i": ["1", "1", "1", "1"]}}, "fused_ops": {"list": {"s": ["Qmlhc0FkZA==", "UmVsdQ=="]}}}}, {"name": "BiasAdd_9", "op": "_FusedConv2D", "input": ["DepthwiseConv2dNative_3", "Const_63", "Const_62"], "device": "/device:CPU:0", "attr": {"fused_ops": {"list": {"s": ["Qmlhc0FkZA=="]}}, "dilations": {"list": {"i": ["1", "1", "1", "1"]}}, "num_args": {"i": "1"}, "use_cudnn_on_gpu": {"b": true}, "strides": {"list": {"i": ["1", "1", "1", "1"]}}, "data_format": {"s": "TkhXQw=="}, "padding": {"s": "VkFMSUQ="}, "epsilon": {"f": 0.0}, "T": {"type": "DT_FLOAT"}, "explicit_paddings": {"list": {}}}}, {"name": "Relu_6", "op": "_FusedConv2D", "input": ["BiasAdd_9", "Const_89", "Const_88"], "device": "/device:CPU:0", "attr": {"explicit_paddings": {"list": {}}, "dilations": {"list": {"i": ["1", "1", "1", "1"]}}, "T": {"type": "DT_FLOAT"}, "data_format": {"s": "TkhXQw=="}, "strides": {"list": {"i": ["1", "1", "1", "1"]}}, "epsilon": {"f": 0.0}, "use_cudnn_on_gpu": {"b": true}, "fused_ops": {"list": {"s": ["Qmlhc0FkZA==", "UmVsdQ=="]}}, "num_args": {"i": "1"}, "padding": {"s": "VkFMSUQ="}}}, {"name": "DepthwiseConv2dNative_4", "op": "FusedDepthwiseConv2dNative", "input": ["Relu_6", "Const_87", "Const_86"], "attr": {"strides": {"list": {"i": ["1", "1", "1", "1"]}}, "padding": {"s": "U0FNRQ=="}, "T": {"type": "DT_FLOAT"}, "num_args": {"i": "1"}, "explicit_paddings": {"list": {}}, "dilations": {"list": {"i": ["1", "1", "1", "1"]}}, "data_format": {"s": "TkhXQw=="}, "fused_ops": {"list": {"s": ["Qmlhc0FkZA==", "UmVsdQ=="]}}}}, {"name": "BiasAdd_12", "op": "_FusedConv2D", "input": ["DepthwiseConv2dNative_4", "Const_85", "Const_84"], "device": "/device:CPU:0", "attr": {"fused_ops": {"list": {"s": ["Qmlhc0FkZA=="]}}, "T": {"type": "DT_FLOAT"}, "strides": {"list": {"i": ["1", "1", "1", "1"]}}, "padding": {"s": "VkFMSUQ="}, "epsilon": {"f": 0.0}, "data_format": {"s": "TkhXQw=="}, "dilations": {"list": {"i": ["1", "1", "1", "1"]}}, "use_cudnn_on_gpu": {"b": true}, "num_args": {"i": "1"}, "explicit_paddings": {"list": {}}}}, {"name": "AddV2_2", "op": "AddV2", "input": ["BiasAdd_12", "BiasAdd_9"], "attr": {"T": {"type": "DT_FLOAT"}}}, {"name": "Relu_8", "op": "_FusedConv2D", "input": ["AddV2_2", "Const_61", "Const_60"], "device": "/device:CPU:0", "attr": {"fused_ops": {"list": {"s": ["Qmlhc0FkZA==", "UmVsdQ=="]}}, "dilations": {"list": {"i": ["1", "1", "1", "1"]}}, "T": {"type": "DT_FLOAT"}, "strides": {"list": {"i": ["1", "1", "1", "1"]}}, "use_cudnn_on_gpu": {"b": true}, "padding": {"s": "VkFMSUQ="}, "epsilon": {"f": 0.0}, "num_args": {"i": "1"}, "explicit_paddings": {"list": {}}, "data_format": {"s": "TkhXQw=="}}}, {"name": "DepthwiseConv2dNative_5", "op": "FusedDepthwiseConv2dNative", "input": ["Relu_8", "Const_59", "Const_58"], "attr": {"num_args": {"i": "1"}, "strides": {"list": {"i": ["1", "1", "1", "1"]}}, "explicit_paddings": {"list": {}}, "data_format": {"s": "TkhXQw=="}, "fused_ops": {"list": {"s": ["Qmlhc0FkZA==", "UmVsdQ=="]}}, "dilations": {"list": {"i": ["1", "1", "1", "1"]}}, "T": {"type": "DT_FLOAT"}, "padding": {"s": "U0FNRQ=="}}}, {"name": "BiasAdd_15", "op": "_FusedConv2D", "input": ["DepthwiseConv2dNative_5", "Const_57", "Const_56"], "device": "/device:CPU:0", "attr": {"fused_ops": {"list": {"s": ["Qmlhc0FkZA=="]}}, "strides": {"list": {"i": ["1", "1", "1", "1"]}}, "use_cudnn_on_gpu": {"b": true}, "num_args": {"i": "1"}, "explicit_paddings": {"list": {}}, "padding": {"s": "VkFMSUQ="}, "dilations": {"list": {"i": ["1", "1", "1", "1"]}}, "T": {"type": "DT_FLOAT"}, "data_format": {"s": "TkhXQw=="}, "epsilon": {"f": 0.0}}}, {"name": "AddV2_3", "op": "AddV2", "input": ["AddV2_2", "BiasAdd_15"], "attr": {"T": {"type": "DT_FLOAT"}}}, {"name": "Relu_10", "op": "_FusedConv2D", "input": ["AddV2_3", "Const_55", "Const_54"], "device": "/device:CPU:0", "attr": {"dilations": {"list": {"i": ["1", "1", "1", "1"]}}, "fused_ops": {"list": {"s": ["Qmlhc0FkZA==", "UmVsdQ=="]}}, "epsilon": {"f": 0.0}, "use_cudnn_on_gpu": {"b": true}, "strides": {"list": {"i": ["1", "1", "1", "1"]}}, "num_args": {"i": "1"}, "padding": {"s": "VkFMSUQ="}, "data_format": {"s": "TkhXQw=="}, "explicit_paddings": {"list": {}}, "T": {"type": "DT_FLOAT"}}}, {"name": "DepthwiseConv2dNative_6", "op": "FusedDepthwiseConv2dNative", "input": ["Relu_10", "Const_53", "Const_52"], "attr": {"dilations": {"list": {"i": ["1", "1", "1", "1"]}}, "explicit_paddings": {"list": {}}, "padding": {"s": "U0FNRQ=="}, "fused_ops": {"list": {"s": ["Qmlhc0FkZA==", "UmVsdQ=="]}}, "data_format": {"s": "TkhXQw=="}, "strides": {"list": {"i": ["1", "1", "1", "1"]}}, "T": {"type": "DT_FLOAT"}, "num_args": {"i": "1"}}}, {"name": "BiasAdd_18", "op": "_FusedConv2D", "input": ["DepthwiseConv2dNative_6", "Const_51", "Const_50"], "device": "/device:CPU:0", "attr": {"use_cudnn_on_gpu": {"b": true}, "explicit_paddings": {"list": {}}, "strides": {"list": {"i": ["1", "1", "1", "1"]}}, "dilations": {"list": {"i": ["1", "1", "1", "1"]}}, "epsilon": {"f": 0.0}, "data_format": {"s": "TkhXQw=="}, "padding": {"s": "VkFMSUQ="}, "T": {"type": "DT_FLOAT"}, "num_args": {"i": "1"}, "fused_ops": {"list": {"s": ["Qmlhc0FkZA=="]}}}}, {"name": "AddV2_4", "op": "AddV2", "input": ["AddV2_3", "BiasAdd_18"], "attr": {"T": {"type": "DT_FLOAT"}}}, {"name": "Relu_12", "op": "_FusedConv2D", "input": ["AddV2_4", "Const_49", "Const_48"], "device": "/device:CPU:0", "attr": {"T": {"type": "DT_FLOAT"}, "epsilon": {"f": 0.0}, "data_format": {"s": "TkhXQw=="}, "padding": {"s": "VkFMSUQ="}, "fused_ops": {"list": {"s": ["Qmlhc0FkZA==", "UmVsdQ=="]}}, "use_cudnn_on_gpu": {"b": true}, "dilations": {"list": {"i": ["1", "1", "1", "1"]}}, "num_args": {"i": "1"}, "explicit_paddings": {"list": {}}, "strides": {"list": {"i": ["1", "1", "1", "1"]}}}}, {"name": "DepthwiseConv2dNative_7", "op": "FusedDepthwiseConv2dNative", "input": ["Relu_12", "Const_47", "Const_46"], "attr": {"explicit_paddings": {"list": {}}, "dilations": {"list": {"i": ["1", "1", "1", "1"]}}, "padding": {"s": "U0FNRQ=="}, "data_format": {"s": "TkhXQw=="}, "fused_ops": {"list": {"s": ["Qmlhc0FkZA==", "UmVsdQ=="]}}, "num_args": {"i": "1"}, "T": {"type": "DT_FLOAT"}, "strides": {"list": {"i": ["1", "2", "2", "1"]}}}}, {"name": "BiasAdd_21", "op": "_FusedConv2D", "input": ["DepthwiseConv2dNative_7", "Const_45", "Const_44"], "device": "/device:CPU:0", "attr": {"padding": {"s": "VkFMSUQ="}, "dilations": {"list": {"i": ["1", "1", "1", "1"]}}, "T": {"type": "DT_FLOAT"}, "use_cudnn_on_gpu": {"b": true}, "data_format": {"s": "TkhXQw=="}, "fused_ops": {"list": {"s": ["Qmlhc0FkZA=="]}}, "explicit_paddings": {"list": {}}, "num_args": {"i": "1"}, "strides": {"list": {"i": ["1", "1", "1", "1"]}}, "epsilon": {"f": 0.0}}}, {"name": "Relu_14", "op": "_FusedConv2D", "input": ["BiasAdd_21", "Const_43", "Const_42"], "device": "/device:CPU:0", "attr": {"fused_ops": {"list": {"s": ["Qmlhc0FkZA==", "UmVsdQ=="]}}, "explicit_paddings": {"list": {}}, "dilations": {"list": {"i": ["1", "1", "1", "1"]}}, "strides": {"list": {"i": ["1", "1", "1", "1"]}}, "padding": {"s": "VkFMSUQ="}, "epsilon": {"f": 0.0}, "data_format": {"s": "TkhXQw=="}, "num_args": {"i": "1"}, "T": {"type": "DT_FLOAT"}, "use_cudnn_on_gpu": {"b": true}}}, {"name": "DepthwiseConv2dNative_8", "op": "FusedDepthwiseConv2dNative", "input": ["Relu_14", "Const_41", "Const_40"], "attr": {"num_args": {"i": "1"}, "data_format": {"s": "TkhXQw=="}, "dilations": {"list": {"i": ["1", "1", "1", "1"]}}, "explicit_paddings": {"list": {}}, "strides": {"list": {"i": ["1", "1", "1", "1"]}}, "padding": {"s": "U0FNRQ=="}, "T": {"type": "DT_FLOAT"}, "fused_ops": {"list": {"s": ["Qmlhc0FkZA==", "UmVsdQ=="]}}}}, {"name": "BiasAdd_24", "op": "_FusedConv2D", "input": ["DepthwiseConv2dNative_8", "Const_39", "Const_38"], "device": "/device:CPU:0", "attr": {"fused_ops": {"list": {"s": ["Qmlhc0FkZA=="]}}, "dilations": {"list": {"i": ["1", "1", "1", "1"]}}, "num_args": {"i": "1"}, "padding": {"s": "VkFMSUQ="}, "strides": {"list": {"i": ["1", "1", "1", "1"]}}, "epsilon": {"f": 0.0}, "T": {"type": "DT_FLOAT"}, "data_format": {"s": "TkhXQw=="}, "explicit_paddings": {"list": {}}, "use_cudnn_on_gpu": {"b": true}}}, {"name": "AddV2_5", "op": "AddV2", "input": ["BiasAdd_21", "BiasAdd_24"], "attr": {"T": {"type": "DT_FLOAT"}}}, {"name": "Relu_16", "op": "_FusedConv2D", "input": ["AddV2_5", "Const_37", "Const_36"], "device": "/device:CPU:0", "attr": {"dilations": {"list": {"i": ["1", "1", "1", "1"]}}, "use_cudnn_on_gpu": {"b": true}, "num_args": {"i": "1"}, "padding": {"s": "VkFMSUQ="}, "epsilon": {"f": 0.0}, "fused_ops": {"list": {"s": ["Qmlhc0FkZA==", "UmVsdQ=="]}}, "strides": {"list": {"i": ["1", "1", "1", "1"]}}, "data_format": {"s": "TkhXQw=="}, "T": {"type": "DT_FLOAT"}, "explicit_paddings": {"list": {}}}}, {"name": "DepthwiseConv2dNative_9", "op": "FusedDepthwiseConv2dNative", "input": ["Relu_16", "Const_35", "Const_34"], "attr": {"fused_ops": {"list": {"s": ["Qmlhc0FkZA==", "UmVsdQ=="]}}, "num_args": {"i": "1"}, "T": {"type": "DT_FLOAT"}, "dilations": {"list": {"i": ["1", "1", "1", "1"]}}, "padding": {"s": "U0FNRQ=="}, "explicit_paddings": {"list": {}}, "data_format": {"s": "TkhXQw=="}, "strides": {"list": {"i": ["1", "1", "1", "1"]}}}}, {"name": "BiasAdd_27", "op": "_FusedConv2D", "input": ["DepthwiseConv2dNative_9", "Const_33", "Const_32"], "device": "/device:CPU:0", "attr": {"dilations": {"list": {"i": ["1", "1", "1", "1"]}}, "explicit_paddings": {"list": {}}, "data_format": {"s": "TkhXQw=="}, "padding": {"s": "VkFMSUQ="}, "fused_ops": {"list": {"s": ["Qmlhc0FkZA=="]}}, "num_args": {"i": "1"}, "use_cudnn_on_gpu": {"b": true}, "T": {"type": "DT_FLOAT"}, "epsilon": {"f": 0.0}, "strides": {"list": {"i": ["1", "1", "1", "1"]}}}}, {"name": "AddV2_6", "op": "AddV2", "input": ["AddV2_5", "BiasAdd_27"], "attr": {"T": {"type": "DT_FLOAT"}}}, {"name": "Relu_18", "op": "_FusedConv2D", "input": ["AddV2_6", "Const_31", "Const_30"], "device": "/device:CPU:0", "attr": {"fused_ops": {"list": {"s": ["Qmlhc0FkZA==", "UmVsdQ=="]}}, "num_args": {"i": "1"}, "epsilon": {"f": 0.0}, "data_format": {"s": "TkhXQw=="}, "use_cudnn_on_gpu": {"b": true}, "padding": {"s": "VkFMSUQ="}, "dilations": {"list": {"i": ["1", "1", "1", "1"]}}, "T": {"type": "DT_FLOAT"}, "strides": {"list": {"i": ["1", "1", "1", "1"]}}, "explicit_paddings": {"list": {}}}}, {"name": "DepthwiseConv2dNative_10", "op": "FusedDepthwiseConv2dNative", "input": ["Relu_18", "Const_29", "Const_28"], "attr": {"padding": {"s": "U0FNRQ=="}, "num_args": {"i": "1"}, "data_format": {"s": "TkhXQw=="}, "strides": {"list": {"i": ["1", "1", "1", "1"]}}, "dilations": {"list": {"i": ["1", "1", "1", "1"]}}, "explicit_paddings": {"list": {}}, "fused_ops": {"list": {"s": ["Qmlhc0FkZA==", "UmVsdQ=="]}}, "T": {"type": "DT_FLOAT"}}}, {"name": "BiasAdd_30", "op": "_FusedConv2D", "input": ["DepthwiseConv2dNative_10", "Const_27", "Const_26"], "device": "/device:CPU:0", "attr": {"padding": {"s": "VkFMSUQ="}, "epsilon": {"f": 0.0}, "num_args": {"i": "1"}, "explicit_paddings": {"list": {}}, "strides": {"list": {"i": ["1", "1", "1", "1"]}}, "data_format": {"s": "TkhXQw=="}, "use_cudnn_on_gpu": {"b": true}, "fused_ops": {"list": {"s": ["Qmlhc0FkZA=="]}}, "dilations": {"list": {"i": ["1", "1", "1", "1"]}}, "T": {"type": "DT_FLOAT"}}}, {"name": "AddV2_7", "op": "AddV2", "input": ["AddV2_6", "BiasAdd_30"], "attr": {"T": {"type": "DT_FLOAT"}}}, {"name": "Relu_20", "op": "_FusedConv2D", "input": ["AddV2_7", "Const_25", "Const_24"], "device": "/device:CPU:0", "attr": {"epsilon": {"f": 0.0}, "padding": {"s": "VkFMSUQ="}, "explicit_paddings": {"list": {}}, "data_format": {"s": "TkhXQw=="}, "T": {"type": "DT_FLOAT"}, "strides": {"list": {"i": ["1", "1", "1", "1"]}}, "use_cudnn_on_gpu": {"b": true}, "fused_ops": {"list": {"s": ["Qmlhc0FkZA==", "UmVsdQ=="]}}, "num_args": {"i": "1"}, "dilations": {"list": {"i": ["1", "1", "1", "1"]}}}}, {"name": "DepthwiseConv2dNative_11", "op": "FusedDepthwiseConv2dNative", "input": ["Relu_20", "Const_23", "Const_22"], "attr": {"fused_ops": {"list": {"s": ["Qmlhc0FkZA==", "UmVsdQ=="]}}, "padding": {"s": "U0FNRQ=="}, "explicit_paddings": {"list": {}}, "strides": {"list": {"i": ["1", "2", "2", "1"]}}, "num_args": {"i": "1"}, "dilations": {"list": {"i": ["1", "1", "1", "1"]}}, "T": {"type": "DT_FLOAT"}, "data_format": {"s": "TkhXQw=="}}}, {"name": "BiasAdd_33", "op": "_FusedConv2D", "input": ["DepthwiseConv2dNative_11", "Const_21", "Const_20"], "device": "/device:CPU:0", "attr": {"num_args": {"i": "1"}, "data_format": {"s": "TkhXQw=="}, "explicit_paddings": {"list": {}}, "fused_ops": {"list": {"s": ["Qmlhc0FkZA=="]}}, "padding": {"s": "VkFMSUQ="}, "T": {"type": "DT_FLOAT"}, "use_cudnn_on_gpu": {"b": true}, "strides": {"list": {"i": ["1", "1", "1", "1"]}}, "dilations": {"list": {"i": ["1", "1", "1", "1"]}}, "epsilon": {"f": 0.0}}}, {"name": "Relu_22", "op": "_FusedConv2D", "input": ["BiasAdd_33", "Const_19", "Const_18"], "device": "/device:CPU:0", "attr": {"T": {"type": "DT_FLOAT"}, "fused_ops": {"list": {"s": ["Qmlhc0FkZA==", "UmVsdQ=="]}}, "strides": {"list": {"i": ["1", "1", "1", "1"]}}, "epsilon": {"f": 0.0}, "use_cudnn_on_gpu": {"b": true}, "padding": {"s": "VkFMSUQ="}, "explicit_paddings": {"list": {}}, "dilations": {"list": {"i": ["1", "1", "1", "1"]}}, "data_format": {"s": "TkhXQw=="}, "num_args": {"i": "1"}}}, {"name": "DepthwiseConv2dNative_12", "op": "FusedDepthwiseConv2dNative", "input": ["Relu_22", "Const_17", "Const_16"], "attr": {"dilations": {"list": {"i": ["1", "1", "1", "1"]}}, "padding": {"s": "U0FNRQ=="}, "fused_ops": {"list": {"s": ["Qmlhc0FkZA==", "UmVsdQ=="]}}, "data_format": {"s": "TkhXQw=="}, "num_args": {"i": "1"}, "explicit_paddings": {"list": {}}, "strides": {"list": {"i": ["1", "1", "1", "1"]}}, "T": {"type": "DT_FLOAT"}}}, {"name": "BiasAdd_36", "op": "_FusedConv2D", "input": ["DepthwiseConv2dNative_12", "Const_15", "Const_14"], "device": "/device:CPU:0", "attr": {"data_format": {"s": "TkhXQw=="}, "T": {"type": "DT_FLOAT"}, "num_args": {"i": "1"}, "use_cudnn_on_gpu": {"b": true}, "fused_ops": {"list": {"s": ["Qmlhc0FkZA=="]}}, "strides": {"list": {"i": ["1", "1", "1", "1"]}}, "dilations": {"list": {"i": ["1", "1", "1", "1"]}}, "explicit_paddings": {"list": {}}, "padding": {"s": "VkFMSUQ="}, "epsilon": {"f": 0.0}}}, {"name": "AddV2_8", "op": "AddV2", "input": ["BiasAdd_33", "BiasAdd_36"], "attr": {"T": {"type": "DT_FLOAT"}}}, {"name": "Relu_24", "op": "_FusedConv2D", "input": ["AddV2_8", "Const_13", "Const_12"], "device": "/device:CPU:0", "attr": {"explicit_paddings": {"list": {}}, "epsilon": {"f": 0.0}, "padding": {"s": "VkFMSUQ="}, "dilations": {"list": {"i": ["1", "1", "1", "1"]}}, "strides": {"list": {"i": ["1", "1", "1", "1"]}}, "fused_ops": {"list": {"s": ["Qmlhc0FkZA==", "UmVsdQ=="]}}, "use_cudnn_on_gpu": {"b": true}, "T": {"type": "DT_FLOAT"}, "data_format": {"s": "TkhXQw=="}, "num_args": {"i": "1"}}}, {"name": "DepthwiseConv2dNative_13", "op": "FusedDepthwiseConv2dNative", "input": ["Relu_24", "Const_11", "Const_10"], "attr": {"padding": {"s": "U0FNRQ=="}, "num_args": {"i": "1"}, "explicit_paddings": {"list": {}}, "T": {"type": "DT_FLOAT"}, "dilations": {"list": {"i": ["1", "1", "1", "1"]}}, "fused_ops": {"list": {"s": ["Qmlhc0FkZA==", "UmVsdQ=="]}}, "strides": {"list": {"i": ["1", "1", "1", "1"]}}, "data_format": {"s": "TkhXQw=="}}}, {"name": "BiasAdd_39", "op": "_FusedConv2D", "input": ["DepthwiseConv2dNative_13", "Const_9", "Const_8"], "device": "/device:CPU:0", "attr": {"padding": {"s": "VkFMSUQ="}, "dilations": {"list": {"i": ["1", "1", "1", "1"]}}, "strides": {"list": {"i": ["1", "1", "1", "1"]}}, "use_cudnn_on_gpu": {"b": true}, "T": {"type": "DT_FLOAT"}, "explicit_paddings": {"list": {}}, "fused_ops": {"list": {"s": ["Qmlhc0FkZA=="]}}, "epsilon": {"f": 0.0}, "num_args": {"i": "1"}, "data_format": {"s": "TkhXQw=="}}}, {"name": "AddV2_9", "op": "AddV2", "input": ["AddV2_8", "BiasAdd_39"], "attr": {"T": {"type": "DT_FLOAT"}}}, {"name": "Relu_26", "op": "_FusedConv2D", "input": ["AddV2_9", "Const_7", "Const_6"], "device": "/device:CPU:0", "attr": {"strides": {"list": {"i": ["1", "1", "1", "1"]}}, "dilations": {"list": {"i": ["1", "1", "1", "1"]}}, "T": {"type": "DT_FLOAT"}, "num_args": {"i": "1"}, "fused_ops": {"list": {"s": ["Qmlhc0FkZA==", "UmVsdQ=="]}}, "padding": {"s": "VkFMSUQ="}, "use_cudnn_on_gpu": {"b": true}, "epsilon": {"f": 0.0}, "data_format": {"s": "TkhXQw=="}, "explicit_paddings": {"list": {}}}}, {"name": "DepthwiseConv2dNative_14", "op": "FusedDepthwiseConv2dNative", "input": ["Relu_26", "Const_5", "Const_4"], "attr": {"num_args": {"i": "1"}, "fused_ops": {"list": {"s": ["Qmlhc0FkZA==", "UmVsdQ=="]}}, "data_format": {"s": "TkhXQw=="}, "T": {"type": "DT_FLOAT"}, "dilations": {"list": {"i": ["1", "1", "1", "1"]}}, "strides": {"list": {"i": ["1", "1", "1", "1"]}}, "padding": {"s": "U0FNRQ=="}, "explicit_paddings": {"list": {}}}}, {"name": "BiasAdd_42", "op": "_FusedConv2D", "input": ["DepthwiseConv2dNative_14", "Const_3", "Const_2"], "device": "/device:CPU:0", "attr": {"fused_ops": {"list": {"s": ["Qmlhc0FkZA=="]}}, "explicit_paddings": {"list": {}}, "strides": {"list": {"i": ["1", "1", "1", "1"]}}, "dilations": {"list": {"i": ["1", "1", "1", "1"]}}, "num_args": {"i": "1"}, "padding": {"s": "VkFMSUQ="}, "use_cudnn_on_gpu": {"b": true}, "T": {"type": "DT_FLOAT"}, "data_format": {"s": "TkhXQw=="}, "epsilon": {"f": 0.0}}}, {"name": "AddV2_10", "op": "AddV2", "input": ["AddV2_9", "BiasAdd_42"], "attr": {"T": {"type": "DT_FLOAT"}}}, {"name": "BiasAdd_43", "op": "_FusedConv2D", "input": ["AddV2_10", "Const_1", "Const"], "device": "/device:CPU:0", "attr": {"strides": {"list": {"i": ["1", "1", "1", "1"]}}, "padding": {"s": "VkFMSUQ="}, "data_format": {"s": "TkhXQw=="}, "dilations": {"list": {"i": ["1", "1", "1", "1"]}}, "epsilon": {"f": 0.0}, "T": {"type": "DT_FLOAT"}, "explicit_paddings": {"list": {}}, "fused_ops": {"list": {"s": ["Qmlhc0FkZA=="]}}, "use_cudnn_on_gpu": {"b": true}, "num_args": {"i": "1"}}}, {"name": "BiasAdd_44", "op": "_FusedConv2D", "input": ["AddV2_10", "Const_91", "Const_90"], "device": "/device:CPU:0", "attr": {"num_args": {"i": "1"}, "padding": {"s": "VkFMSUQ="}, "data_format": {"s": "TkhXQw=="}, "use_cudnn_on_gpu": {"b": true}, "fused_ops": {"list": {"s": ["Qmlhc0FkZA=="]}}, "T": {"type": "DT_FLOAT"}, "epsilon": {"f": 0.0}, "explicit_paddings": {"list": {}}, "dilations": {"list": {"i": ["1", "1", "1", "1"]}}, "strides": {"list": {"i": ["1", "1", "1", "1"]}}}}, {"name": "transpose", "op": "Transpose", "input": ["BiasAdd_43", "Const_93"], "attr": {"Tperm": {"type": "DT_INT32"}, "T": {"type": "DT_FLOAT"}}}, {"name": "transpose_1", "op": "Transpose", "input": ["BiasAdd_44", "Const_93"], "attr": {"Tperm": {"type": "DT_INT32"}, "T": {"type": "DT_FLOAT"}}}, {"name": "Reshape", "op": "Reshape", "input": ["transpose", "Const_92"], "attr": {"Tshape": {"type": "DT_INT64"}, "T": {"type": "DT_FLOAT"}}}, {"name": "Reshape_1", "op": "Reshape", "input": ["transpose_1", "Const_95"], "attr": {"T": {"type": "DT_FLOAT"}, "Tshape": {"type": "DT_INT64"}}}, {"name": "Softmax", "op": "Softmax", "input": ["Reshape"], "attr": {"T": {"type": "DT_FLOAT"}}}, {"name": "Softmax_1", "op": "Softmax", "input": ["Reshape_1"], "attr": {"T": {"type": "DT_FLOAT"}}}, {"name": "classes", "op": "Identity", "input": ["Softmax"], "attr": {"T": {"type": "DT_FLOAT"}}}, {"name": "Reshape_2", "op": "Reshape", "input": ["Softmax_1", "Const_94"], "attr": {"T": {"type": "DT_FLOAT"}, "Tshape": {"type": "DT_INT64"}}}, {"name": "Sqrt", "op": "Sqrt", "input": ["Reshape_2"], "attr": {"T": {"type": "DT_FLOAT"}}}, {"name": "Sum_2", "op": "Sum", "input": ["Reshape_2", "Const_100"], "attr": {"T": {"type": "DT_FLOAT"}, "keep_dims": {"b": false}, "Tidx": {"type": "DT_INT32"}}}, {"name": "Sum", "op": "Sum", "input": ["Reshape_2", "Const_98"], "attr": {"T": {"type": "DT_FLOAT"}, "Tidx": {"type": "DT_INT32"}, "keep_dims": {"b": false}}}, {"name": "Sum_4", "op": "Sum", "input": ["Sqrt", "Const_101"], "attr": {"keep_dims": {"b": false}, "T": {"type": "DT_FLOAT"}, "Tidx": {"type": "DT_INT32"}}}, {"name": "Mul_2", "op": "Mul", "input": ["Const_99", "Sum_2"], "attr": {"T": {"type": "DT_FLOAT"}}}, {"name": "Mul_1", "op": "Mul", "input": ["Const_99", "Sum"], "attr": {"T": {"type": "DT_FLOAT"}}}, {"name": "Mul_3", "op": "Mul", "input": ["Const_102", "Sum_4"], "attr": {"T": {"type": "DT_FLOAT"}}}, {"name": "Sum_3", "op": "Sum", "input": ["Mul_2", "Const_96"], "attr": {"T": {"type": "DT_FLOAT"}, "Tidx": {"type": "DT_INT32"}, "keep_dims": {"b": true}}}, {"name": "Sum_1", "op": "Sum", "input": ["Mul_1", "Const_96"], "attr": {"T": {"type": "DT_FLOAT"}, "Tidx": {"type": "DT_INT32"}, "keep_dims": {"b": true}}}, {"name": "Sub_1", "op": "Sub", "input": ["Const_82", "Mul_3"], "attr": {"T": {"type": "DT_FLOAT"}}}, {"name": "ConcatV2", "op": "ConcatV2", "input": ["Sum_3", "Sum_1", "Const_96"], "attr": {"T": {"type": "DT_FLOAT"}, "Tidx": {"type": "DT_INT32"}, "N": {"i": "2"}}}, {"name": "Mean", "op": "Mean", "input": ["Sub_1", "Const_96"], "attr": {"T": {"type": "DT_FLOAT"}, "Tidx": {"type": "DT_INT32"}, "keep_dims": {"b": false}}}, {"name": "SplitV", "op": "SplitV", "input": ["ConcatV2", "Const_97", "Const_96"], "attr": {"T": {"type": "DT_FLOAT"}, "num_split": {"i": "2"}, "Tlen": {"type": "DT_INT32"}}}, {"name": "confidence", "op": "Identity", "input": ["Mean"], "attr": {"T": {"type": "DT_FLOAT"}}}, {"name": "ConcatV2_1", "op": "ConcatV2", "input": ["SplitV:1", "SplitV", "Const_96"], "attr": {"Tidx": {"type": "DT_INT32"}, "T": {"type": "DT_FLOAT"}, "N": {"i": "2"}}}, {"name": "coords", "op": "Identity", "input": ["ConcatV2_1"], "attr": {"T": {"type": "DT_FLOAT"}}}], "library": {}, "versions": {"producer": 808}}, "weightsManifest": [{"paths": ["group1-shard1of1.bin"], "weights": [{"name": "Const_1", "shape": [7, 7, 256, 8], "dtype": "float32", "qdtype": "int8", "quant_type": 1, "scale_dtype": "float64", "offset_dtype": "int64", "quant_dim": 3}, {"name": "Const", "shape": [8], "dtype": "float32", "qdtype": "float32", "quant_type": 0}, {"name": "Const_92", "shape": [3], "dtype": "int32", "qdtype": "int32", "quant_type": 0}, {"name": "Const_102", "shape": [], "dtype": "float32", "qdtype": "float32", "quant_type": 0}, {"name": "Const_101", "shape": [2], "dtype": "int32", "qdtype": "int32", "quant_type": 0}, {"name": "Const_100", "shape": [], "dtype": "int32", "qdtype": "int32", "quant_type": 0}, {"name": "Const_99", "shape": [7], "dtype": "float32", "qdtype": "float32", "quant_type": 0}, {"name": "Const_89", "shape": [1, 1, 72, 144], "dtype": "float32", "qdtype": "int8", "quant_type": 1, "scale_dtype": "float64", "offset_dtype": "int64", "quant_dim": 3}, {"name": "Const_88", "shape": [144], "dtype": "float32", "qdtype": "float32", "quant_type": 0}, {"name": "Const_87", "shape": [3, 3, 144, 1], "dtype": "float32", "qdtype": "int8", "quant_type": 1, "scale_dtype": "float64", "offset_dtype": "int64", "quant_dim": 2}, {"name": "Const_86", "shape": [144], "dtype": "float32", "qdtype": "float32", "quant_type": 0}, {"name": "Const_85", "shape": [1, 1, 144, 72], "dtype": "float32", "qdtype": "int8", "quant_type": 1, "scale_dtype": "float64", "offset_dtype": "int64", "quant_dim": 3}, {"name": "Const_84", "shape": [72], "dtype": "float32", "qdtype": "float32", "quant_type": 0}, {"name": "Const_83", "shape": [], "dtype": "float32", "qdtype": "float32", "quant_type": 0}, {"name": "Const_82", "shape": [], "dtype": "float32", "qdtype": "float32", "quant_type": 0}, {"name": "Const_81", "shape": [3, 3, 3, 40], "dtype": "float32", "qdtype": "int8", "quant_type": 1, "scale_dtype": "float64", "offset_dtype": "int64", "quant_dim": 3}, {"name": "Const_80", "shape": [40], "dtype": "float32", "qdtype": "float32", "quant_type": 0}, {"name": "Const_79", "shape": [3, 3, 40, 1], "dtype": "float32", "qdtype": "int8", "quant_type": 1, "scale_dtype": "float64", "offset_dtype": "int64", "quant_dim": 2}, {"name": "Const_78", "shape": [40], "dtype": "float32", "qdtype": "float32", "quant_type": 0}, {"name": "Const_77", "shape": [1, 1, 40, 40], "dtype": "float32", "qdtype": "int8", "quant_type": 1, "scale_dtype": "float64", "offset_dtype": "int64", "quant_dim": 3}, {"name": "Const_76", "shape": [40], "dtype": "float32", "qdtype": "float32", "quant_type": 0}, {"name": "Const_75", "shape": [3, 3, 40, 1], "dtype": "float32", "qdtype": "int8", "quant_type": 1, "scale_dtype": "float64", "offset_dtype": "int64", "quant_dim": 2}, {"name": "Const_74", "shape": [40], "dtype": "float32", "qdtype": "float32", "quant_type": 0}, {"name": "Const_73", "shape": [1, 1, 40, 40], "dtype": "float32", "qdtype": "int8", "quant_type": 1, "scale_dtype": "float64", "offset_dtype": "int64", "quant_dim": 3}, {"name": "Const_72", "shape": [40], "dtype": "float32", "qdtype": "float32", "quant_type": 0}, {"name": "Const_71", "shape": [3, 3, 40, 1], "dtype": "float32", "qdtype": "int8", "quant_type": 1, "scale_dtype": "float64", "offset_dtype": "int64", "quant_dim": 2}, {"name": "Const_70", "shape": [40], "dtype": "float32", "qdtype": "float32", "quant_type": 0}, {"name": "Const_69", "shape": [1, 1, 40, 40], "dtype": "float32", "qdtype": "int8", "quant_type": 1, "scale_dtype": "float64", "offset_dtype": "int64", "quant_dim": 3}, {"name": "Const_68", "shape": [40], "dtype": "float32", "qdtype": "float32", "quant_type": 0}, {"name": "Const_67", "shape": [1, 1, 40, 80], "dtype": "float32", "qdtype": "int8", "quant_type": 1, "scale_dtype": "float64", "offset_dtype": "int64", "quant_dim": 3}, {"name": "Const_66", "shape": [80], "dtype": "float32", "qdtype": "float32", "quant_type": 0}, {"name": "Const_65", "shape": [3, 3, 80, 1], "dtype": "float32", "qdtype": "int8", "quant_type": 1, "scale_dtype": "float64", "offset_dtype": "int64", "quant_dim": 2}, {"name": "Const_64", "shape": [80], "dtype": "float32", "qdtype": "float32", "quant_type": 0}, {"name": "Const_63", "shape": [1, 1, 80, 72], "dtype": "float32", "qdtype": "int8", "quant_type": 1, "scale_dtype": "float64", "offset_dtype": "int64", "quant_dim": 3}, {"name": "Const_62", "shape": [72], "dtype": "float32", "qdtype": "float32", "quant_type": 0}, {"name": "Const_61", "shape": [1, 1, 72, 144], "dtype": "float32", "qdtype": "int8", "quant_type": 1, "scale_dtype": "float64", "offset_dtype": "int64", "quant_dim": 3}, {"name": "Const_60", "shape": [144], "dtype": "float32", "qdtype": "float32", "quant_type": 0}, {"name": "Const_59", "shape": [3, 3, 144, 1], "dtype": "float32", "qdtype": "int8", "quant_type": 1, "scale_dtype": "float64", "offset_dtype": "int64", "quant_dim": 2}, {"name": "Const_58", "shape": [144], "dtype": "float32", "qdtype": "float32", "quant_type": 0}, {"name": "Const_57", "shape": [1, 1, 144, 72], "dtype": "float32", "qdtype": "int8", "quant_type": 1, "scale_dtype": "float64", "offset_dtype": "int64", "quant_dim": 3}, {"name": "Const_56", "shape": [72], "dtype": "float32", "qdtype": "float32", "quant_type": 0}, {"name": "Const_55", "shape": [1, 1, 72, 144], "dtype": "float32", "qdtype": "int8", "quant_type": 1, "scale_dtype": "float64", "offset_dtype": "int64", "quant_dim": 3}, {"name": "Const_54", "shape": [144], "dtype": "float32", "qdtype": "float32", "quant_type": 0}, {"name": "Const_53", "shape": [3, 3, 144, 1], "dtype": "float32", "qdtype": "int8", "quant_type": 1, "scale_dtype": "float64", "offset_dtype": "int64", "quant_dim": 2}, {"name": "Const_52", "shape": [144], "dtype": "float32", "qdtype": "float32", "quant_type": 0}, {"name": "Const_51", "shape": [1, 1, 144, 72], "dtype": "float32", "qdtype": "int8", "quant_type": 1, "scale_dtype": "float64", "offset_dtype": "int64", "quant_dim": 3}, {"name": "Const_50", "shape": [72], "dtype": "float32", "qdtype": "float32", "quant_type": 0}, {"name": "Const_49", "shape": [1, 1, 72, 216], "dtype": "float32", "qdtype": "int8", "quant_type": 1, "scale_dtype": "float64", "offset_dtype": "int64", "quant_dim": 3}, {"name": "Const_48", "shape": [216], "dtype": "float32", "qdtype": "float32", "quant_type": 0}, {"name": "Const_47", "shape": [3, 3, 216, 1], "dtype": "float32", "qdtype": "int8", "quant_type": 1, "scale_dtype": "float64", "offset_dtype": "int64", "quant_dim": 2}, {"name": "Const_46", "shape": [216], "dtype": "float32", "qdtype": "float32", "quant_type": 0}, {"name": "Const_45", "shape": [1, 1, 216, 152], "dtype": "float32", "qdtype": "int8", "quant_type": 1, "scale_dtype": "float64", "offset_dtype": "int64", "quant_dim": 3}, {"name": "Const_44", "shape": [152], "dtype": "float32", "qdtype": "float32", "quant_type": 0}, {"name": "Const_43", "shape": [1, 1, 152, 456], "dtype": "float32", "qdtype": "int8", "quant_type": 1, "scale_dtype": "float64", "offset_dtype": "int64", "quant_dim": 3}, {"name": "Const_42", "shape": [456], "dtype": "float32", "qdtype": "float32", "quant_type": 0}, {"name": "Const_41", "shape": [3, 3, 456, 1], "dtype": "float32", "qdtype": "int8", "quant_type": 1, "scale_dtype": "float64", "offset_dtype": "int64", "quant_dim": 2}, {"name": "Const_40", "shape": [456], "dtype": "float32", "qdtype": "float32", "quant_type": 0}, {"name": "Const_39", "shape": [1, 1, 456, 152], "dtype": "float32", "qdtype": "int8", "quant_type": 1, "scale_dtype": "float64", "offset_dtype": "int64", "quant_dim": 3}, {"name": "Const_38", "shape": [152], "dtype": "float32", "qdtype": "float32", "quant_type": 0}, {"name": "Const_37", "shape": [1, 1, 152, 456], "dtype": "float32", "qdtype": "int8", "quant_type": 1, "scale_dtype": "float64", "offset_dtype": "int64", "quant_dim": 3}, {"name": "Const_36", "shape": [456], "dtype": "float32", "qdtype": "float32", "quant_type": 0}, {"name": "Const_35", "shape": [3, 3, 456, 1], "dtype": "float32", "qdtype": "int8", "quant_type": 1, "scale_dtype": "float64", "offset_dtype": "int64", "quant_dim": 2}, {"name": "Const_34", "shape": [456], "dtype": "float32", "qdtype": "float32", "quant_type": 0}, {"name": "Const_33", "shape": [1, 1, 456, 152], "dtype": "float32", "qdtype": "int8", "quant_type": 1, "scale_dtype": "float64", "offset_dtype": "int64", "quant_dim": 3}, {"name": "Const_32", "shape": [152], "dtype": "float32", "qdtype": "float32", "quant_type": 0}, {"name": "Const_31", "shape": [1, 1, 152, 456], "dtype": "float32", "qdtype": "int8", "quant_type": 1, "scale_dtype": "float64", "offset_dtype": "int64", "quant_dim": 3}, {"name": "Const_30", "shape": [456], "dtype": "float32", "qdtype": "float32", "quant_type": 0}, {"name": "Const_29", "shape": [3, 3, 456, 1], "dtype": "float32", "qdtype": "int8", "quant_type": 1, "scale_dtype": "float64", "offset_dtype": "int64", "quant_dim": 2}, {"name": "Const_28", "shape": [456], "dtype": "float32", "qdtype": "float32", "quant_type": 0}, {"name": "Const_27", "shape": [1, 1, 456, 152], "dtype": "float32", "qdtype": "int8", "quant_type": 1, "scale_dtype": "float64", "offset_dtype": "int64", "quant_dim": 3}, {"name": "Const_26", "shape": [152], "dtype": "float32", "qdtype": "float32", "quant_type": 0}, {"name": "Const_25", "shape": [1, 1, 152, 608], "dtype": "float32", "qdtype": "int8", "quant_type": 1, "scale_dtype": "float64", "offset_dtype": "int64", "quant_dim": 3}, {"name": "Const_24", "shape": [608], "dtype": "float32", "qdtype": "float32", "quant_type": 0}, {"name": "Const_23", "shape": [3, 3, 608, 1], "dtype": "float32", "qdtype": "int8", "quant_type": 1, "scale_dtype": "float64", "offset_dtype": "int64", "quant_dim": 2}, {"name": "Const_22", "shape": [608], "dtype": "float32", "qdtype": "float32", "quant_type": 0}, {"name": "Const_21", "shape": [1, 1, 608, 256], "dtype": "float32", "qdtype": "int8", "quant_type": 1, "scale_dtype": "float64", "offset_dtype": "int64", "quant_dim": 3}, {"name": "Const_20", "shape": [256], "dtype": "float32", "qdtype": "float32", "quant_type": 0}, {"name": "Const_19", "shape": [1, 1, 256, 1024], "dtype": "float32", "qdtype": "int8", "quant_type": 1, "scale_dtype": "float64", "offset_dtype": "int64", "quant_dim": 3}, {"name": "Const_18", "shape": [1024], "dtype": "float32", "qdtype": "float32", "quant_type": 0}, {"name": "Const_17", "shape": [3, 3, 1024, 1], "dtype": "float32", "qdtype": "int8", "quant_type": 1, "scale_dtype": "float64", "offset_dtype": "int64", "quant_dim": 2}, {"name": "Const_16", "shape": [1024], "dtype": "float32", "qdtype": "float32", "quant_type": 0}, {"name": "Const_15", "shape": [1, 1, 1024, 256], "dtype": "float32", "qdtype": "int8", "quant_type": 1, "scale_dtype": "float64", "offset_dtype": "int64", "quant_dim": 3}, {"name": "Const_14", "shape": [256], "dtype": "float32", "qdtype": "float32", "quant_type": 0}, {"name": "Const_13", "shape": [1, 1, 256, 1024], "dtype": "float32", "qdtype": "int8", "quant_type": 1, "scale_dtype": "float64", "offset_dtype": "int64", "quant_dim": 3}, {"name": "Const_12", "shape": [1024], "dtype": "float32", "qdtype": "float32", "quant_type": 0}, {"name": "Const_11", "shape": [3, 3, 1024, 1], "dtype": "float32", "qdtype": "int8", "quant_type": 1, "scale_dtype": "float64", "offset_dtype": "int64", "quant_dim": 2}, {"name": "Const_10", "shape": [1024], "dtype": "float32", "qdtype": "float32", "quant_type": 0}, {"name": "Const_9", "shape": [1, 1, 1024, 256], "dtype": "float32", "qdtype": "int8", "quant_type": 1, "scale_dtype": "float64", "offset_dtype": "int64", "quant_dim": 3}, {"name": "Const_8", "shape": [256], "dtype": "float32", "qdtype": "float32", "quant_type": 0}, {"name": "Const_7", "shape": [1, 1, 256, 1024], "dtype": "float32", "qdtype": "int8", "quant_type": 1, "scale_dtype": "float64", "offset_dtype": "int64", "quant_dim": 3}, {"name": "Const_6", "shape": [1024], "dtype": "float32", "qdtype": "float32", "quant_type": 0}, {"name": "Const_5", "shape": [3, 3, 1024, 1], "dtype": "float32", "qdtype": "int8", "quant_type": 1, "scale_dtype": "float64", "offset_dtype": "int64", "quant_dim": 2}, {"name": "Const_4", "shape": [1024], "dtype": "float32", "qdtype": "float32", "quant_type": 0}, {"name": "Const_3", "shape": [1, 1, 1024, 256], "dtype": "float32", "qdtype": "int8", "quant_type": 1, "scale_dtype": "float64", "offset_dtype": "int64", "quant_dim": 3}, {"name": "Const_2", "shape": [256], "dtype": "float32", "qdtype": "float32", "quant_type": 0}, {"name": "Const_91", "shape": [1, 1, 256, 21], "dtype": "float32", "qdtype": "int8", "quant_type": 1, "scale_dtype": "float64", "offset_dtype": "int64", "quant_dim": 3}, {"name": "Const_90", "shape": [21], "dtype": "float32", "qdtype": "float32", "quant_type": 0}, {"name": "Const_93", "shape": [4], "dtype": "int32", "qdtype": "int32", "quant_type": 0}, {"name": "Const_95", "shape": [2], "dtype": "int32", "qdtype": "int32", "quant_type": 0}, {"name": "Const_94", "shape": [4], "dtype": "int32", "qdtype": "int32", "quant_type": 0}, {"name": "Const_98", "shape": [], "dtype": "int32", "qdtype": "int32", "quant_type": 0}, {"name": "Const_97", "shape": [2], "dtype": "int32", "qdtype": "int32", "quant_type": 0}, {"name": "Const_96", "shape": [], "dtype": "int32", "qdtype": "int32", "quant_type": 0}], "__proxied": true}]}