{"format": "graph-model", "generatedBy": "2.6.0", "convertedBy": "TensorFlow.js Converter v3.9.0", "signature": {"inputs": {"input:0": {"name": "input:0", "dtype": "DT_UINT8", "tensorShape": {"dim": [{"size": "1"}, {"size": "128"}, {"size": "128"}, {"size": "3"}]}}}, "outputs": {"confidence": {"name": "confidence:0", "dtype": "DT_FLOAT", "tensorShape": {"dim": [{"size": "1"}]}}, "classes": {"name": "classes:0", "dtype": "DT_FLOAT", "tensorShape": {"dim": [{"size": "1"}, {"size": "2"}, {"size": "2"}]}}, "coords": {"name": "coords:0", "dtype": "DT_FLOAT", "tensorShape": {"dim": [{"size": "1"}, {"size": "6"}, {"size": "2"}]}}}}, "modelTopology": {"node": [{"name": "Const", "op": "Const", "attr": {"dtype": {"type": "DT_FLOAT"}, "value": {"tensor": {"dtype": "DT_FLOAT", "tensorShape": {"dim": [{"size": "8"}, {"size": "8"}, {"size": "160"}, {"size": "4"}]}}}}}, {"name": "Const_100", "op": "Const", "attr": {"value": {"tensor": {"dtype": "DT_INT64", "tensorShape": {"dim": [{"size": "3"}]}}}, "dtype": {"type": "DT_INT64"}}}, {"name": "Const_110", "op": "Const", "attr": {"value": {"tensor": {"dtype": "DT_FLOAT", "tensorShape": {}}}, "dtype": {"type": "DT_FLOAT"}}}, {"name": "Const_109", "op": "Const", "attr": {"dtype": {"type": "DT_INT32"}, "value": {"tensor": {"dtype": "DT_INT32", "tensorShape": {"dim": [{"size": "2"}]}}}}}, {"name": "Const_108", "op": "Const", "attr": {"value": {"tensor": {"dtype": "DT_INT32", "tensorShape": {}}}, "dtype": {"type": "DT_INT32"}}}, {"name": "Const_107", "op": "Const", "attr": {"value": {"tensor": {"dtype": "DT_FLOAT", "tensorShape": {"dim": [{"size": "8"}]}}}, "dtype": {"type": "DT_FLOAT"}}}, {"name": "Const_98", "op": "Const", "attr": {"value": {"tensor": {"dtype": "DT_FLOAT", "tensorShape": {"dim": [{"size": "3"}, {"size": "3"}, {"size": "16"}, {"size": "1"}]}}}, "dtype": {"type": "DT_FLOAT"}}}, {"name": "Const_97", "op": "Const", "attr": {"dtype": {"type": "DT_FLOAT"}, "value": {"tensor": {"dtype": "DT_FLOAT", "tensorShape": {"dim": [{"size": "16"}]}}}}}, {"name": "Const_96", "op": "Const", "attr": {"value": {"tensor": {"dtype": "DT_FLOAT", "tensorShape": {"dim": [{"size": "1"}, {"size": "1"}, {"size": "16"}, {"size": "16"}]}}}, "dtype": {"type": "DT_FLOAT"}}}, {"name": "Const_95", "op": "Const", "attr": {"value": {"tensor": {"dtype": "DT_FLOAT", "tensorShape": {"dim": [{"size": "16"}]}}}, "dtype": {"type": "DT_FLOAT"}}}, {"name": "Const_94", "op": "Const", "attr": {"dtype": {"type": "DT_FLOAT"}, "value": {"tensor": {"dtype": "DT_FLOAT", "tensorShape": {}}}}}, {"name": "Const_93", "op": "Const", "attr": {"dtype": {"type": "DT_FLOAT"}, "value": {"tensor": {"dtype": "DT_FLOAT", "tensorShape": {}}}}}, {"name": "Const_92", "op": "Const", "attr": {"dtype": {"type": "DT_FLOAT"}, "value": {"tensor": {"dtype": "DT_FLOAT", "tensorShape": {"dim": [{"size": "3"}, {"size": "3"}, {"size": "3"}, {"size": "16"}]}}}}}, {"name": "Const_91", "op": "Const", "attr": {"value": {"tensor": {"dtype": "DT_FLOAT", "tensorShape": {"dim": [{"size": "16"}]}}}, "dtype": {"type": "DT_FLOAT"}}}, {"name": "Const_90", "op": "Const", "attr": {"dtype": {"type": "DT_FLOAT"}, "value": {"tensor": {"dtype": "DT_FLOAT", "tensorShape": {"dim": [{"size": "1"}, {"size": "1"}, {"size": "16"}, {"size": "96"}]}}}}}, {"name": "Const_89", "op": "Const", "attr": {"dtype": {"type": "DT_FLOAT"}, "value": {"tensor": {"dtype": "DT_FLOAT", "tensorShape": {"dim": [{"size": "96"}]}}}}}, {"name": "Const_88", "op": "Const", "attr": {"dtype": {"type": "DT_FLOAT"}, "value": {"tensor": {"dtype": "DT_FLOAT", "tensorShape": {"dim": [{"size": "3"}, {"size": "3"}, {"size": "96"}, {"size": "1"}]}}}}}, {"name": "Const_87", "op": "Const", "attr": {"dtype": {"type": "DT_FLOAT"}, "value": {"tensor": {"dtype": "DT_FLOAT", "tensorShape": {"dim": [{"size": "96"}]}}}}}, {"name": "Const_86", "op": "Const", "attr": {"value": {"tensor": {"dtype": "DT_FLOAT", "tensorShape": {"dim": [{"size": "1"}, {"size": "1"}, {"size": "96"}, {"size": "24"}]}}}, "dtype": {"type": "DT_FLOAT"}}}, {"name": "Const_85", "op": "Const", "attr": {"dtype": {"type": "DT_FLOAT"}, "value": {"tensor": {"dtype": "DT_FLOAT", "tensorShape": {"dim": [{"size": "24"}]}}}}}, {"name": "Const_84", "op": "Const", "attr": {"value": {"tensor": {"dtype": "DT_FLOAT", "tensorShape": {"dim": [{"size": "1"}, {"size": "1"}, {"size": "24"}, {"size": "144"}]}}}, "dtype": {"type": "DT_FLOAT"}}}, {"name": "Const_83", "op": "Const", "attr": {"value": {"tensor": {"dtype": "DT_FLOAT", "tensorShape": {"dim": [{"size": "144"}]}}}, "dtype": {"type": "DT_FLOAT"}}}, {"name": "Const_82", "op": "Const", "attr": {"dtype": {"type": "DT_FLOAT"}, "value": {"tensor": {"dtype": "DT_FLOAT", "tensorShape": {"dim": [{"size": "3"}, {"size": "3"}, {"size": "144"}, {"size": "1"}]}}}}}, {"name": "Const_81", "op": "Const", "attr": {"dtype": {"type": "DT_FLOAT"}, "value": {"tensor": {"dtype": "DT_FLOAT", "tensorShape": {"dim": [{"size": "144"}]}}}}}, {"name": "Const_80", "op": "Const", "attr": {"dtype": {"type": "DT_FLOAT"}, "value": {"tensor": {"dtype": "DT_FLOAT", "tensorShape": {"dim": [{"size": "1"}, {"size": "1"}, {"size": "144"}, {"size": "24"}]}}}}}, {"name": "Const_79", "op": "Const", "attr": {"value": {"tensor": {"dtype": "DT_FLOAT", "tensorShape": {"dim": [{"size": "24"}]}}}, "dtype": {"type": "DT_FLOAT"}}}, {"name": "Const_78", "op": "Const", "attr": {"value": {"tensor": {"dtype": "DT_FLOAT", "tensorShape": {"dim": [{"size": "1"}, {"size": "1"}, {"size": "24"}, {"size": "144"}]}}}, "dtype": {"type": "DT_FLOAT"}}}, {"name": "Const_77", "op": "Const", "attr": {"value": {"tensor": {"dtype": "DT_FLOAT", "tensorShape": {"dim": [{"size": "144"}]}}}, "dtype": {"type": "DT_FLOAT"}}}, {"name": "Const_76", "op": "Const", "attr": {"value": {"tensor": {"dtype": "DT_FLOAT", "tensorShape": {"dim": [{"size": "3"}, {"size": "3"}, {"size": "144"}, {"size": "1"}]}}}, "dtype": {"type": "DT_FLOAT"}}}, {"name": "Const_75", "op": "Const", "attr": {"dtype": {"type": "DT_FLOAT"}, "value": {"tensor": {"dtype": "DT_FLOAT", "tensorShape": {"dim": [{"size": "144"}]}}}}}, {"name": "Const_74", "op": "Const", "attr": {"dtype": {"type": "DT_FLOAT"}, "value": {"tensor": {"dtype": "DT_FLOAT", "tensorShape": {"dim": [{"size": "1"}, {"size": "1"}, {"size": "144"}, {"size": "32"}]}}}}}, {"name": "Const_73", "op": "Const", "attr": {"dtype": {"type": "DT_FLOAT"}, "value": {"tensor": {"dtype": "DT_FLOAT", "tensorShape": {"dim": [{"size": "32"}]}}}}}, {"name": "Const_72", "op": "Const", "attr": {"value": {"tensor": {"dtype": "DT_FLOAT", "tensorShape": {"dim": [{"size": "1"}, {"size": "1"}, {"size": "32"}, {"size": "192"}]}}}, "dtype": {"type": "DT_FLOAT"}}}, {"name": "Const_71", "op": "Const", "attr": {"dtype": {"type": "DT_FLOAT"}, "value": {"tensor": {"dtype": "DT_FLOAT", "tensorShape": {"dim": [{"size": "192"}]}}}}}, {"name": "Const_70", "op": "Const", "attr": {"value": {"tensor": {"dtype": "DT_FLOAT", "tensorShape": {"dim": [{"size": "3"}, {"size": "3"}, {"size": "192"}, {"size": "1"}]}}}, "dtype": {"type": "DT_FLOAT"}}}, {"name": "Const_69", "op": "Const", "attr": {"dtype": {"type": "DT_FLOAT"}, "value": {"tensor": {"dtype": "DT_FLOAT", "tensorShape": {"dim": [{"size": "192"}]}}}}}, {"name": "Const_68", "op": "Const", "attr": {"value": {"tensor": {"dtype": "DT_FLOAT", "tensorShape": {"dim": [{"size": "1"}, {"size": "1"}, {"size": "192"}, {"size": "32"}]}}}, "dtype": {"type": "DT_FLOAT"}}}, {"name": "Const_67", "op": "Const", "attr": {"dtype": {"type": "DT_FLOAT"}, "value": {"tensor": {"dtype": "DT_FLOAT", "tensorShape": {"dim": [{"size": "32"}]}}}}}, {"name": "Const_66", "op": "Const", "attr": {"value": {"tensor": {"dtype": "DT_FLOAT", "tensorShape": {"dim": [{"size": "1"}, {"size": "1"}, {"size": "32"}, {"size": "192"}]}}}, "dtype": {"type": "DT_FLOAT"}}}, {"name": "Const_65", "op": "Const", "attr": {"value": {"tensor": {"dtype": "DT_FLOAT", "tensorShape": {"dim": [{"size": "192"}]}}}, "dtype": {"type": "DT_FLOAT"}}}, {"name": "Const_64", "op": "Const", "attr": {"value": {"tensor": {"dtype": "DT_FLOAT", "tensorShape": {"dim": [{"size": "3"}, {"size": "3"}, {"size": "192"}, {"size": "1"}]}}}, "dtype": {"type": "DT_FLOAT"}}}, {"name": "Const_63", "op": "Const", "attr": {"value": {"tensor": {"dtype": "DT_FLOAT", "tensorShape": {"dim": [{"size": "192"}]}}}, "dtype": {"type": "DT_FLOAT"}}}, {"name": "Const_62", "op": "Const", "attr": {"dtype": {"type": "DT_FLOAT"}, "value": {"tensor": {"dtype": "DT_FLOAT", "tensorShape": {"dim": [{"size": "1"}, {"size": "1"}, {"size": "192"}, {"size": "32"}]}}}}}, {"name": "Const_61", "op": "Const", "attr": {"value": {"tensor": {"dtype": "DT_FLOAT", "tensorShape": {"dim": [{"size": "32"}]}}}, "dtype": {"type": "DT_FLOAT"}}}, {"name": "Const_60", "op": "Const", "attr": {"dtype": {"type": "DT_FLOAT"}, "value": {"tensor": {"dtype": "DT_FLOAT", "tensorShape": {"dim": [{"size": "1"}, {"size": "1"}, {"size": "32"}, {"size": "192"}]}}}}}, {"name": "Const_59", "op": "Const", "attr": {"value": {"tensor": {"dtype": "DT_FLOAT", "tensorShape": {"dim": [{"size": "192"}]}}}, "dtype": {"type": "DT_FLOAT"}}}, {"name": "Const_58", "op": "Const", "attr": {"dtype": {"type": "DT_FLOAT"}, "value": {"tensor": {"dtype": "DT_FLOAT", "tensorShape": {"dim": [{"size": "3"}, {"size": "3"}, {"size": "192"}, {"size": "1"}]}}}}}, {"name": "Const_57", "op": "Const", "attr": {"value": {"tensor": {"dtype": "DT_FLOAT", "tensorShape": {"dim": [{"size": "192"}]}}}, "dtype": {"type": "DT_FLOAT"}}}, {"name": "Const_56", "op": "Const", "attr": {"dtype": {"type": "DT_FLOAT"}, "value": {"tensor": {"dtype": "DT_FLOAT", "tensorShape": {"dim": [{"size": "1"}, {"size": "1"}, {"size": "192"}, {"size": "64"}]}}}}}, {"name": "Const_55", "op": "Const", "attr": {"dtype": {"type": "DT_FLOAT"}, "value": {"tensor": {"dtype": "DT_FLOAT", "tensorShape": {"dim": [{"size": "64"}]}}}}}, {"name": "Const_54", "op": "Const", "attr": {"dtype": {"type": "DT_FLOAT"}, "value": {"tensor": {"dtype": "DT_FLOAT", "tensorShape": {"dim": [{"size": "1"}, {"size": "1"}, {"size": "64"}, {"size": "384"}]}}}}}, {"name": "Const_53", "op": "Const", "attr": {"value": {"tensor": {"dtype": "DT_FLOAT", "tensorShape": {"dim": [{"size": "384"}]}}}, "dtype": {"type": "DT_FLOAT"}}}, {"name": "Const_52", "op": "Const", "attr": {"dtype": {"type": "DT_FLOAT"}, "value": {"tensor": {"dtype": "DT_FLOAT", "tensorShape": {"dim": [{"size": "3"}, {"size": "3"}, {"size": "384"}, {"size": "1"}]}}}}}, {"name": "Const_51", "op": "Const", "attr": {"dtype": {"type": "DT_FLOAT"}, "value": {"tensor": {"dtype": "DT_FLOAT", "tensorShape": {"dim": [{"size": "384"}]}}}}}, {"name": "Const_50", "op": "Const", "attr": {"dtype": {"type": "DT_FLOAT"}, "value": {"tensor": {"dtype": "DT_FLOAT", "tensorShape": {"dim": [{"size": "1"}, {"size": "1"}, {"size": "384"}, {"size": "64"}]}}}}}, {"name": "Const_49", "op": "Const", "attr": {"dtype": {"type": "DT_FLOAT"}, "value": {"tensor": {"dtype": "DT_FLOAT", "tensorShape": {"dim": [{"size": "64"}]}}}}}, {"name": "Const_48", "op": "Const", "attr": {"value": {"tensor": {"dtype": "DT_FLOAT", "tensorShape": {"dim": [{"size": "1"}, {"size": "1"}, {"size": "64"}, {"size": "384"}]}}}, "dtype": {"type": "DT_FLOAT"}}}, {"name": "Const_47", "op": "Const", "attr": {"dtype": {"type": "DT_FLOAT"}, "value": {"tensor": {"dtype": "DT_FLOAT", "tensorShape": {"dim": [{"size": "384"}]}}}}}, {"name": "Const_46", "op": "Const", "attr": {"value": {"tensor": {"dtype": "DT_FLOAT", "tensorShape": {"dim": [{"size": "3"}, {"size": "3"}, {"size": "384"}, {"size": "1"}]}}}, "dtype": {"type": "DT_FLOAT"}}}, {"name": "Const_45", "op": "Const", "attr": {"dtype": {"type": "DT_FLOAT"}, "value": {"tensor": {"dtype": "DT_FLOAT", "tensorShape": {"dim": [{"size": "384"}]}}}}}, {"name": "Const_44", "op": "Const", "attr": {"dtype": {"type": "DT_FLOAT"}, "value": {"tensor": {"dtype": "DT_FLOAT", "tensorShape": {"dim": [{"size": "1"}, {"size": "1"}, {"size": "384"}, {"size": "64"}]}}}}}, {"name": "Const_43", "op": "Const", "attr": {"value": {"tensor": {"dtype": "DT_FLOAT", "tensorShape": {"dim": [{"size": "64"}]}}}, "dtype": {"type": "DT_FLOAT"}}}, {"name": "Const_42", "op": "Const", "attr": {"value": {"tensor": {"dtype": "DT_FLOAT", "tensorShape": {"dim": [{"size": "1"}, {"size": "1"}, {"size": "64"}, {"size": "384"}]}}}, "dtype": {"type": "DT_FLOAT"}}}, {"name": "Const_41", "op": "Const", "attr": {"value": {"tensor": {"dtype": "DT_FLOAT", "tensorShape": {"dim": [{"size": "384"}]}}}, "dtype": {"type": "DT_FLOAT"}}}, {"name": "Const_40", "op": "Const", "attr": {"dtype": {"type": "DT_FLOAT"}, "value": {"tensor": {"dtype": "DT_FLOAT", "tensorShape": {"dim": [{"size": "3"}, {"size": "3"}, {"size": "384"}, {"size": "1"}]}}}}}, {"name": "Const_39", "op": "Const", "attr": {"value": {"tensor": {"dtype": "DT_FLOAT", "tensorShape": {"dim": [{"size": "384"}]}}}, "dtype": {"type": "DT_FLOAT"}}}, {"name": "Const_38", "op": "Const", "attr": {"dtype": {"type": "DT_FLOAT"}, "value": {"tensor": {"dtype": "DT_FLOAT", "tensorShape": {"dim": [{"size": "1"}, {"size": "1"}, {"size": "384"}, {"size": "64"}]}}}}}, {"name": "Const_37", "op": "Const", "attr": {"value": {"tensor": {"dtype": "DT_FLOAT", "tensorShape": {"dim": [{"size": "64"}]}}}, "dtype": {"type": "DT_FLOAT"}}}, {"name": "Const_36", "op": "Const", "attr": {"value": {"tensor": {"dtype": "DT_FLOAT", "tensorShape": {"dim": [{"size": "1"}, {"size": "1"}, {"size": "64"}, {"size": "384"}]}}}, "dtype": {"type": "DT_FLOAT"}}}, {"name": "Const_35", "op": "Const", "attr": {"dtype": {"type": "DT_FLOAT"}, "value": {"tensor": {"dtype": "DT_FLOAT", "tensorShape": {"dim": [{"size": "384"}]}}}}}, {"name": "Const_34", "op": "Const", "attr": {"value": {"tensor": {"dtype": "DT_FLOAT", "tensorShape": {"dim": [{"size": "3"}, {"size": "3"}, {"size": "384"}, {"size": "1"}]}}}, "dtype": {"type": "DT_FLOAT"}}}, {"name": "Const_33", "op": "Const", "attr": {"value": {"tensor": {"dtype": "DT_FLOAT", "tensorShape": {"dim": [{"size": "384"}]}}}, "dtype": {"type": "DT_FLOAT"}}}, {"name": "Const_32", "op": "Const", "attr": {"dtype": {"type": "DT_FLOAT"}, "value": {"tensor": {"dtype": "DT_FLOAT", "tensorShape": {"dim": [{"size": "1"}, {"size": "1"}, {"size": "384"}, {"size": "96"}]}}}}}, {"name": "Const_31", "op": "Const", "attr": {"value": {"tensor": {"dtype": "DT_FLOAT", "tensorShape": {"dim": [{"size": "96"}]}}}, "dtype": {"type": "DT_FLOAT"}}}, {"name": "Const_30", "op": "Const", "attr": {"dtype": {"type": "DT_FLOAT"}, "value": {"tensor": {"dtype": "DT_FLOAT", "tensorShape": {"dim": [{"size": "1"}, {"size": "1"}, {"size": "96"}, {"size": "576"}]}}}}}, {"name": "Const_29", "op": "Const", "attr": {"dtype": {"type": "DT_FLOAT"}, "value": {"tensor": {"dtype": "DT_FLOAT", "tensorShape": {"dim": [{"size": "576"}]}}}}}, {"name": "Const_28", "op": "Const", "attr": {"dtype": {"type": "DT_FLOAT"}, "value": {"tensor": {"dtype": "DT_FLOAT", "tensorShape": {"dim": [{"size": "3"}, {"size": "3"}, {"size": "576"}, {"size": "1"}]}}}}}, {"name": "Const_27", "op": "Const", "attr": {"value": {"tensor": {"dtype": "DT_FLOAT", "tensorShape": {"dim": [{"size": "576"}]}}}, "dtype": {"type": "DT_FLOAT"}}}, {"name": "Const_26", "op": "Const", "attr": {"value": {"tensor": {"dtype": "DT_FLOAT", "tensorShape": {"dim": [{"size": "1"}, {"size": "1"}, {"size": "576"}, {"size": "96"}]}}}, "dtype": {"type": "DT_FLOAT"}}}, {"name": "Const_25", "op": "Const", "attr": {"value": {"tensor": {"dtype": "DT_FLOAT", "tensorShape": {"dim": [{"size": "96"}]}}}, "dtype": {"type": "DT_FLOAT"}}}, {"name": "Const_24", "op": "Const", "attr": {"value": {"tensor": {"dtype": "DT_FLOAT", "tensorShape": {"dim": [{"size": "1"}, {"size": "1"}, {"size": "96"}, {"size": "576"}]}}}, "dtype": {"type": "DT_FLOAT"}}}, {"name": "Const_23", "op": "Const", "attr": {"value": {"tensor": {"dtype": "DT_FLOAT", "tensorShape": {"dim": [{"size": "576"}]}}}, "dtype": {"type": "DT_FLOAT"}}}, {"name": "Const_22", "op": "Const", "attr": {"value": {"tensor": {"dtype": "DT_FLOAT", "tensorShape": {"dim": [{"size": "3"}, {"size": "3"}, {"size": "576"}, {"size": "1"}]}}}, "dtype": {"type": "DT_FLOAT"}}}, {"name": "Const_21", "op": "Const", "attr": {"dtype": {"type": "DT_FLOAT"}, "value": {"tensor": {"dtype": "DT_FLOAT", "tensorShape": {"dim": [{"size": "576"}]}}}}}, {"name": "Const_20", "op": "Const", "attr": {"value": {"tensor": {"dtype": "DT_FLOAT", "tensorShape": {"dim": [{"size": "1"}, {"size": "1"}, {"size": "576"}, {"size": "96"}]}}}, "dtype": {"type": "DT_FLOAT"}}}, {"name": "Const_19", "op": "Const", "attr": {"value": {"tensor": {"dtype": "DT_FLOAT", "tensorShape": {"dim": [{"size": "96"}]}}}, "dtype": {"type": "DT_FLOAT"}}}, {"name": "Const_18", "op": "Const", "attr": {"dtype": {"type": "DT_FLOAT"}, "value": {"tensor": {"dtype": "DT_FLOAT", "tensorShape": {"dim": [{"size": "1"}, {"size": "1"}, {"size": "96"}, {"size": "576"}]}}}}}, {"name": "Const_17", "op": "Const", "attr": {"dtype": {"type": "DT_FLOAT"}, "value": {"tensor": {"dtype": "DT_FLOAT", "tensorShape": {"dim": [{"size": "576"}]}}}}}, {"name": "Const_16", "op": "Const", "attr": {"dtype": {"type": "DT_FLOAT"}, "value": {"tensor": {"dtype": "DT_FLOAT", "tensorShape": {"dim": [{"size": "3"}, {"size": "3"}, {"size": "576"}, {"size": "1"}]}}}}}, {"name": "Const_15", "op": "Const", "attr": {"value": {"tensor": {"dtype": "DT_FLOAT", "tensorShape": {"dim": [{"size": "576"}]}}}, "dtype": {"type": "DT_FLOAT"}}}, {"name": "Const_14", "op": "Const", "attr": {"dtype": {"type": "DT_FLOAT"}, "value": {"tensor": {"dtype": "DT_FLOAT", "tensorShape": {"dim": [{"size": "1"}, {"size": "1"}, {"size": "576"}, {"size": "160"}]}}}}}, {"name": "Const_13", "op": "Const", "attr": {"value": {"tensor": {"dtype": "DT_FLOAT", "tensorShape": {"dim": [{"size": "160"}]}}}, "dtype": {"type": "DT_FLOAT"}}}, {"name": "Const_12", "op": "Const", "attr": {"dtype": {"type": "DT_FLOAT"}, "value": {"tensor": {"dtype": "DT_FLOAT", "tensorShape": {"dim": [{"size": "1"}, {"size": "1"}, {"size": "160"}, {"size": "960"}]}}}}}, {"name": "Const_11", "op": "Const", "attr": {"dtype": {"type": "DT_FLOAT"}, "value": {"tensor": {"dtype": "DT_FLOAT", "tensorShape": {"dim": [{"size": "960"}]}}}}}, {"name": "Const_10", "op": "Const", "attr": {"dtype": {"type": "DT_FLOAT"}, "value": {"tensor": {"dtype": "DT_FLOAT", "tensorShape": {"dim": [{"size": "3"}, {"size": "3"}, {"size": "960"}, {"size": "1"}]}}}}}, {"name": "Const_9", "op": "Const", "attr": {"value": {"tensor": {"dtype": "DT_FLOAT", "tensorShape": {"dim": [{"size": "960"}]}}}, "dtype": {"type": "DT_FLOAT"}}}, {"name": "Const_8", "op": "Const", "attr": {"dtype": {"type": "DT_FLOAT"}, "value": {"tensor": {"dtype": "DT_FLOAT", "tensorShape": {"dim": [{"size": "1"}, {"size": "1"}, {"size": "960"}, {"size": "160"}]}}}}}, {"name": "Const_7", "op": "Const", "attr": {"dtype": {"type": "DT_FLOAT"}, "value": {"tensor": {"dtype": "DT_FLOAT", "tensorShape": {"dim": [{"size": "160"}]}}}}}, {"name": "Const_6", "op": "Const", "attr": {"value": {"tensor": {"dtype": "DT_FLOAT", "tensorShape": {"dim": [{"size": "1"}, {"size": "1"}, {"size": "160"}, {"size": "960"}]}}}, "dtype": {"type": "DT_FLOAT"}}}, {"name": "Const_5", "op": "Const", "attr": {"dtype": {"type": "DT_FLOAT"}, "value": {"tensor": {"dtype": "DT_FLOAT", "tensorShape": {"dim": [{"size": "960"}]}}}}}, {"name": "Const_4", "op": "Const", "attr": {"dtype": {"type": "DT_FLOAT"}, "value": {"tensor": {"dtype": "DT_FLOAT", "tensorShape": {"dim": [{"size": "3"}, {"size": "3"}, {"size": "960"}, {"size": "1"}]}}}}}, {"name": "Const_3", "op": "Const", "attr": {"value": {"tensor": {"dtype": "DT_FLOAT", "tensorShape": {"dim": [{"size": "960"}]}}}, "dtype": {"type": "DT_FLOAT"}}}, {"name": "Const_2", "op": "Const", "attr": {"dtype": {"type": "DT_FLOAT"}, "value": {"tensor": {"dtype": "DT_FLOAT", "tensorShape": {"dim": [{"size": "1"}, {"size": "1"}, {"size": "960"}, {"size": "160"}]}}}}}, {"name": "Const_1", "op": "Const", "attr": {"value": {"tensor": {"dtype": "DT_FLOAT", "tensorShape": {"dim": [{"size": "160"}]}}}, "dtype": {"type": "DT_FLOAT"}}}, {"name": "Const_99", "op": "Const", "attr": {"dtype": {"type": "DT_FLOAT"}, "value": {"tensor": {"dtype": "DT_FLOAT", "tensorShape": {"dim": [{"size": "1"}, {"size": "1"}, {"size": "160"}, {"size": "6"}]}}}}}, {"name": "Const_101", "op": "Const", "attr": {"dtype": {"type": "DT_INT32"}, "value": {"tensor": {"dtype": "DT_INT32", "tensorShape": {"dim": [{"size": "4"}]}}}}}, {"name": "Const_103", "op": "Const", "attr": {"dtype": {"type": "DT_INT64"}, "value": {"tensor": {"dtype": "DT_INT64", "tensorShape": {"dim": [{"size": "2"}]}}}}}, {"name": "Const_102", "op": "Const", "attr": {"dtype": {"type": "DT_INT64"}, "value": {"tensor": {"dtype": "DT_INT64", "tensorShape": {"dim": [{"size": "4"}]}}}}}, {"name": "Const_106", "op": "Const", "attr": {"value": {"tensor": {"dtype": "DT_INT32", "tensorShape": {}}}, "dtype": {"type": "DT_INT32"}}}, {"name": "Const_105", "op": "Const", "attr": {"value": {"tensor": {"dtype": "DT_INT32", "tensorShape": {"dim": [{"size": "2"}]}}}, "dtype": {"type": "DT_INT32"}}}, {"name": "Const_104", "op": "Const", "attr": {"dtype": {"type": "DT_INT32"}, "value": {"tensor": {"dtype": "DT_INT32", "tensorShape": {}}}}}, {"name": "input", "op": "Placeholder", "attr": {"dtype": {"type": "DT_UINT8"}, "shape": {"shape": {"dim": [{"size": "1"}, {"size": "128"}, {"size": "128"}, {"size": "3"}]}}}}, {"name": "Cast", "op": "Cast", "input": ["input"], "attr": {"SrcT": {"type": "DT_UINT8"}, "DstT": {"type": "DT_FLOAT"}, "Truncate": {"b": false}}}, {"name": "Mul", "op": "Mul", "input": ["Cast", "Const_94"], "attr": {"T": {"type": "DT_FLOAT"}}}, {"name": "Sub", "op": "Sub", "input": ["Mul", "Const_93"], "attr": {"T": {"type": "DT_FLOAT"}}}, {"name": "Relu", "op": "_FusedConv2D", "input": ["Sub", "Const_92", "Const_91"], "device": "/device:CPU:0", "attr": {"T": {"type": "DT_FLOAT"}, "explicit_paddings": {"list": {}}, "num_args": {"i": "1"}, "use_cudnn_on_gpu": {"b": true}, "strides": {"list": {"i": ["1", "2", "2", "1"]}}, "padding": {"s": "U0FNRQ=="}, "dilations": {"list": {"i": ["1", "1", "1", "1"]}}, "data_format": {"s": "TkhXQw=="}, "fused_ops": {"list": {"s": ["Qmlhc0FkZA==", "UmVsdQ=="]}}, "epsilon": {"f": 0.0}}}, {"name": "DepthwiseConv2dNative", "op": "FusedDepthwiseConv2dNative", "input": ["Relu", "Const_98", "Const_97"], "attr": {"strides": {"list": {"i": ["1", "1", "1", "1"]}}, "fused_ops": {"list": {"s": ["Qmlhc0FkZA==", "UmVsdQ=="]}}, "num_args": {"i": "1"}, "T": {"type": "DT_FLOAT"}, "dilations": {"list": {"i": ["1", "1", "1", "1"]}}, "explicit_paddings": {"list": {}}, "padding": {"s": "U0FNRQ=="}, "data_format": {"s": "TkhXQw=="}}}, {"name": "BiasAdd_2", "op": "_FusedConv2D", "input": ["DepthwiseConv2dNative", "Const_96", "Const_95"], "device": "/device:CPU:0", "attr": {"fused_ops": {"list": {"s": ["Qmlhc0FkZA=="]}}, "dilations": {"list": {"i": ["1", "1", "1", "1"]}}, "use_cudnn_on_gpu": {"b": true}, "strides": {"list": {"i": ["1", "1", "1", "1"]}}, "explicit_paddings": {"list": {}}, "padding": {"s": "VkFMSUQ="}, "num_args": {"i": "1"}, "T": {"type": "DT_FLOAT"}, "epsilon": {"f": 0.0}, "data_format": {"s": "TkhXQw=="}}}, {"name": "AddV2", "op": "AddV2", "input": ["BiasAdd_2", "Relu"], "attr": {"T": {"type": "DT_FLOAT"}}}, {"name": "Relu_2", "op": "_FusedConv2D", "input": ["AddV2", "Const_90", "Const_89"], "device": "/device:CPU:0", "attr": {"use_cudnn_on_gpu": {"b": true}, "strides": {"list": {"i": ["1", "1", "1", "1"]}}, "padding": {"s": "VkFMSUQ="}, "dilations": {"list": {"i": ["1", "1", "1", "1"]}}, "epsilon": {"f": 0.0}, "num_args": {"i": "1"}, "T": {"type": "DT_FLOAT"}, "data_format": {"s": "TkhXQw=="}, "explicit_paddings": {"list": {}}, "fused_ops": {"list": {"s": ["Qmlhc0FkZA==", "UmVsdQ=="]}}}}, {"name": "DepthwiseConv2dNative_1", "op": "FusedDepthwiseConv2dNative", "input": ["Relu_2", "Const_88", "Const_87"], "attr": {"T": {"type": "DT_FLOAT"}, "num_args": {"i": "1"}, "strides": {"list": {"i": ["1", "2", "2", "1"]}}, "fused_ops": {"list": {"s": ["Qmlhc0FkZA==", "UmVsdQ=="]}}, "data_format": {"s": "TkhXQw=="}, "explicit_paddings": {"list": {}}, "dilations": {"list": {"i": ["1", "1", "1", "1"]}}, "padding": {"s": "U0FNRQ=="}}}, {"name": "BiasAdd_5", "op": "_FusedConv2D", "input": ["DepthwiseConv2dNative_1", "Const_86", "Const_85"], "device": "/device:CPU:0", "attr": {"use_cudnn_on_gpu": {"b": true}, "data_format": {"s": "TkhXQw=="}, "padding": {"s": "VkFMSUQ="}, "dilations": {"list": {"i": ["1", "1", "1", "1"]}}, "T": {"type": "DT_FLOAT"}, "epsilon": {"f": 0.0}, "strides": {"list": {"i": ["1", "1", "1", "1"]}}, "explicit_paddings": {"list": {}}, "fused_ops": {"list": {"s": ["Qmlhc0FkZA=="]}}, "num_args": {"i": "1"}}}, {"name": "Relu_4", "op": "_FusedConv2D", "input": ["BiasAdd_5", "Const_84", "Const_83"], "device": "/device:CPU:0", "attr": {"padding": {"s": "VkFMSUQ="}, "explicit_paddings": {"list": {}}, "fused_ops": {"list": {"s": ["Qmlhc0FkZA==", "UmVsdQ=="]}}, "epsilon": {"f": 0.0}, "data_format": {"s": "TkhXQw=="}, "use_cudnn_on_gpu": {"b": true}, "T": {"type": "DT_FLOAT"}, "strides": {"list": {"i": ["1", "1", "1", "1"]}}, "dilations": {"list": {"i": ["1", "1", "1", "1"]}}, "num_args": {"i": "1"}}}, {"name": "DepthwiseConv2dNative_2", "op": "FusedDepthwiseConv2dNative", "input": ["Relu_4", "Const_82", "Const_81"], "attr": {"strides": {"list": {"i": ["1", "1", "1", "1"]}}, "explicit_paddings": {"list": {}}, "dilations": {"list": {"i": ["1", "1", "1", "1"]}}, "num_args": {"i": "1"}, "data_format": {"s": "TkhXQw=="}, "T": {"type": "DT_FLOAT"}, "fused_ops": {"list": {"s": ["Qmlhc0FkZA==", "UmVsdQ=="]}}, "padding": {"s": "U0FNRQ=="}}}, {"name": "BiasAdd_8", "op": "_FusedConv2D", "input": ["DepthwiseConv2dNative_2", "Const_80", "Const_79"], "device": "/device:CPU:0", "attr": {"T": {"type": "DT_FLOAT"}, "fused_ops": {"list": {"s": ["Qmlhc0FkZA=="]}}, "data_format": {"s": "TkhXQw=="}, "padding": {"s": "VkFMSUQ="}, "num_args": {"i": "1"}, "dilations": {"list": {"i": ["1", "1", "1", "1"]}}, "strides": {"list": {"i": ["1", "1", "1", "1"]}}, "explicit_paddings": {"list": {}}, "use_cudnn_on_gpu": {"b": true}, "epsilon": {"f": 0.0}}}, {"name": "AddV2_1", "op": "AddV2", "input": ["BiasAdd_5", "BiasAdd_8"], "attr": {"T": {"type": "DT_FLOAT"}}}, {"name": "Relu_6", "op": "_FusedConv2D", "input": ["AddV2_1", "Const_78", "Const_77"], "device": "/device:CPU:0", "attr": {"dilations": {"list": {"i": ["1", "1", "1", "1"]}}, "explicit_paddings": {"list": {}}, "padding": {"s": "VkFMSUQ="}, "use_cudnn_on_gpu": {"b": true}, "num_args": {"i": "1"}, "fused_ops": {"list": {"s": ["Qmlhc0FkZA==", "UmVsdQ=="]}}, "data_format": {"s": "TkhXQw=="}, "strides": {"list": {"i": ["1", "1", "1", "1"]}}, "epsilon": {"f": 0.0}, "T": {"type": "DT_FLOAT"}}}, {"name": "DepthwiseConv2dNative_3", "op": "FusedDepthwiseConv2dNative", "input": ["Relu_6", "Const_76", "Const_75"], "attr": {"padding": {"s": "U0FNRQ=="}, "strides": {"list": {"i": ["1", "2", "2", "1"]}}, "data_format": {"s": "TkhXQw=="}, "T": {"type": "DT_FLOAT"}, "fused_ops": {"list": {"s": ["Qmlhc0FkZA==", "UmVsdQ=="]}}, "dilations": {"list": {"i": ["1", "1", "1", "1"]}}, "explicit_paddings": {"list": {}}, "num_args": {"i": "1"}}}, {"name": "BiasAdd_11", "op": "_FusedConv2D", "input": ["DepthwiseConv2dNative_3", "Const_74", "Const_73"], "device": "/device:CPU:0", "attr": {"explicit_paddings": {"list": {}}, "epsilon": {"f": 0.0}, "T": {"type": "DT_FLOAT"}, "padding": {"s": "VkFMSUQ="}, "dilations": {"list": {"i": ["1", "1", "1", "1"]}}, "fused_ops": {"list": {"s": ["Qmlhc0FkZA=="]}}, "num_args": {"i": "1"}, "data_format": {"s": "TkhXQw=="}, "strides": {"list": {"i": ["1", "1", "1", "1"]}}, "use_cudnn_on_gpu": {"b": true}}}, {"name": "Relu_8", "op": "_FusedConv2D", "input": ["BiasAdd_11", "Const_72", "Const_71"], "device": "/device:CPU:0", "attr": {"use_cudnn_on_gpu": {"b": true}, "epsilon": {"f": 0.0}, "strides": {"list": {"i": ["1", "1", "1", "1"]}}, "explicit_paddings": {"list": {}}, "dilations": {"list": {"i": ["1", "1", "1", "1"]}}, "T": {"type": "DT_FLOAT"}, "padding": {"s": "VkFMSUQ="}, "data_format": {"s": "TkhXQw=="}, "fused_ops": {"list": {"s": ["Qmlhc0FkZA==", "UmVsdQ=="]}}, "num_args": {"i": "1"}}}, {"name": "DepthwiseConv2dNative_4", "op": "FusedDepthwiseConv2dNative", "input": ["Relu_8", "Const_70", "Const_69"], "attr": {"padding": {"s": "U0FNRQ=="}, "data_format": {"s": "TkhXQw=="}, "num_args": {"i": "1"}, "strides": {"list": {"i": ["1", "1", "1", "1"]}}, "explicit_paddings": {"list": {}}, "dilations": {"list": {"i": ["1", "1", "1", "1"]}}, "fused_ops": {"list": {"s": ["Qmlhc0FkZA==", "UmVsdQ=="]}}, "T": {"type": "DT_FLOAT"}}}, {"name": "BiasAdd_14", "op": "_FusedConv2D", "input": ["DepthwiseConv2dNative_4", "Const_68", "Const_67"], "device": "/device:CPU:0", "attr": {"epsilon": {"f": 0.0}, "data_format": {"s": "TkhXQw=="}, "use_cudnn_on_gpu": {"b": true}, "dilations": {"list": {"i": ["1", "1", "1", "1"]}}, "padding": {"s": "VkFMSUQ="}, "T": {"type": "DT_FLOAT"}, "fused_ops": {"list": {"s": ["Qmlhc0FkZA=="]}}, "num_args": {"i": "1"}, "strides": {"list": {"i": ["1", "1", "1", "1"]}}, "explicit_paddings": {"list": {}}}}, {"name": "AddV2_2", "op": "AddV2", "input": ["BiasAdd_11", "BiasAdd_14"], "attr": {"T": {"type": "DT_FLOAT"}}}, {"name": "Relu_10", "op": "_FusedConv2D", "input": ["AddV2_2", "Const_66", "Const_65"], "device": "/device:CPU:0", "attr": {"T": {"type": "DT_FLOAT"}, "fused_ops": {"list": {"s": ["Qmlhc0FkZA==", "UmVsdQ=="]}}, "strides": {"list": {"i": ["1", "1", "1", "1"]}}, "data_format": {"s": "TkhXQw=="}, "epsilon": {"f": 0.0}, "num_args": {"i": "1"}, "use_cudnn_on_gpu": {"b": true}, "dilations": {"list": {"i": ["1", "1", "1", "1"]}}, "padding": {"s": "VkFMSUQ="}, "explicit_paddings": {"list": {}}}}, {"name": "DepthwiseConv2dNative_5", "op": "FusedDepthwiseConv2dNative", "input": ["Relu_10", "Const_64", "Const_63"], "attr": {"dilations": {"list": {"i": ["1", "1", "1", "1"]}}, "strides": {"list": {"i": ["1", "1", "1", "1"]}}, "padding": {"s": "U0FNRQ=="}, "data_format": {"s": "TkhXQw=="}, "T": {"type": "DT_FLOAT"}, "num_args": {"i": "1"}, "explicit_paddings": {"list": {}}, "fused_ops": {"list": {"s": ["Qmlhc0FkZA==", "UmVsdQ=="]}}}}, {"name": "BiasAdd_17", "op": "_FusedConv2D", "input": ["DepthwiseConv2dNative_5", "Const_62", "Const_61"], "device": "/device:CPU:0", "attr": {"T": {"type": "DT_FLOAT"}, "use_cudnn_on_gpu": {"b": true}, "padding": {"s": "VkFMSUQ="}, "fused_ops": {"list": {"s": ["Qmlhc0FkZA=="]}}, "explicit_paddings": {"list": {}}, "dilations": {"list": {"i": ["1", "1", "1", "1"]}}, "strides": {"list": {"i": ["1", "1", "1", "1"]}}, "num_args": {"i": "1"}, "epsilon": {"f": 0.0}, "data_format": {"s": "TkhXQw=="}}}, {"name": "AddV2_3", "op": "AddV2", "input": ["AddV2_2", "BiasAdd_17"], "attr": {"T": {"type": "DT_FLOAT"}}}, {"name": "Relu_12", "op": "_FusedConv2D", "input": ["AddV2_3", "Const_60", "Const_59"], "device": "/device:CPU:0", "attr": {"dilations": {"list": {"i": ["1", "1", "1", "1"]}}, "epsilon": {"f": 0.0}, "explicit_paddings": {"list": {}}, "data_format": {"s": "TkhXQw=="}, "num_args": {"i": "1"}, "fused_ops": {"list": {"s": ["Qmlhc0FkZA==", "UmVsdQ=="]}}, "T": {"type": "DT_FLOAT"}, "padding": {"s": "VkFMSUQ="}, "strides": {"list": {"i": ["1", "1", "1", "1"]}}, "use_cudnn_on_gpu": {"b": true}}}, {"name": "DepthwiseConv2dNative_6", "op": "FusedDepthwiseConv2dNative", "input": ["Relu_12", "Const_58", "Const_57"], "attr": {"data_format": {"s": "TkhXQw=="}, "num_args": {"i": "1"}, "T": {"type": "DT_FLOAT"}, "padding": {"s": "U0FNRQ=="}, "dilations": {"list": {"i": ["1", "1", "1", "1"]}}, "fused_ops": {"list": {"s": ["Qmlhc0FkZA==", "UmVsdQ=="]}}, "explicit_paddings": {"list": {}}, "strides": {"list": {"i": ["1", "2", "2", "1"]}}}}, {"name": "BiasAdd_20", "op": "_FusedConv2D", "input": ["DepthwiseConv2dNative_6", "Const_56", "Const_55"], "device": "/device:CPU:0", "attr": {"explicit_paddings": {"list": {}}, "use_cudnn_on_gpu": {"b": true}, "padding": {"s": "VkFMSUQ="}, "epsilon": {"f": 0.0}, "dilations": {"list": {"i": ["1", "1", "1", "1"]}}, "data_format": {"s": "TkhXQw=="}, "num_args": {"i": "1"}, "fused_ops": {"list": {"s": ["Qmlhc0FkZA=="]}}, "strides": {"list": {"i": ["1", "1", "1", "1"]}}, "T": {"type": "DT_FLOAT"}}}, {"name": "Relu_14", "op": "_FusedConv2D", "input": ["BiasAdd_20", "Const_54", "Const_53"], "device": "/device:CPU:0", "attr": {"use_cudnn_on_gpu": {"b": true}, "fused_ops": {"list": {"s": ["Qmlhc0FkZA==", "UmVsdQ=="]}}, "strides": {"list": {"i": ["1", "1", "1", "1"]}}, "explicit_paddings": {"list": {}}, "data_format": {"s": "TkhXQw=="}, "dilations": {"list": {"i": ["1", "1", "1", "1"]}}, "T": {"type": "DT_FLOAT"}, "padding": {"s": "VkFMSUQ="}, "num_args": {"i": "1"}, "epsilon": {"f": 0.0}}}, {"name": "DepthwiseConv2dNative_7", "op": "FusedDepthwiseConv2dNative", "input": ["Relu_14", "Const_52", "Const_51"], "attr": {"T": {"type": "DT_FLOAT"}, "explicit_paddings": {"list": {}}, "padding": {"s": "U0FNRQ=="}, "dilations": {"list": {"i": ["1", "1", "1", "1"]}}, "num_args": {"i": "1"}, "fused_ops": {"list": {"s": ["Qmlhc0FkZA==", "UmVsdQ=="]}}, "strides": {"list": {"i": ["1", "1", "1", "1"]}}, "data_format": {"s": "TkhXQw=="}}}, {"name": "BiasAdd_23", "op": "_FusedConv2D", "input": ["DepthwiseConv2dNative_7", "Const_50", "Const_49"], "device": "/device:CPU:0", "attr": {"fused_ops": {"list": {"s": ["Qmlhc0FkZA=="]}}, "use_cudnn_on_gpu": {"b": true}, "strides": {"list": {"i": ["1", "1", "1", "1"]}}, "num_args": {"i": "1"}, "explicit_paddings": {"list": {}}, "data_format": {"s": "TkhXQw=="}, "T": {"type": "DT_FLOAT"}, "epsilon": {"f": 0.0}, "padding": {"s": "VkFMSUQ="}, "dilations": {"list": {"i": ["1", "1", "1", "1"]}}}}, {"name": "AddV2_4", "op": "AddV2", "input": ["BiasAdd_20", "BiasAdd_23"], "attr": {"T": {"type": "DT_FLOAT"}}}, {"name": "Relu_16", "op": "_FusedConv2D", "input": ["AddV2_4", "Const_48", "Const_47"], "device": "/device:CPU:0", "attr": {"strides": {"list": {"i": ["1", "1", "1", "1"]}}, "T": {"type": "DT_FLOAT"}, "dilations": {"list": {"i": ["1", "1", "1", "1"]}}, "explicit_paddings": {"list": {}}, "num_args": {"i": "1"}, "fused_ops": {"list": {"s": ["Qmlhc0FkZA==", "UmVsdQ=="]}}, "padding": {"s": "VkFMSUQ="}, "use_cudnn_on_gpu": {"b": true}, "epsilon": {"f": 0.0}, "data_format": {"s": "TkhXQw=="}}}, {"name": "DepthwiseConv2dNative_8", "op": "FusedDepthwiseConv2dNative", "input": ["Relu_16", "Const_46", "Const_45"], "attr": {"T": {"type": "DT_FLOAT"}, "data_format": {"s": "TkhXQw=="}, "padding": {"s": "U0FNRQ=="}, "num_args": {"i": "1"}, "fused_ops": {"list": {"s": ["Qmlhc0FkZA==", "UmVsdQ=="]}}, "strides": {"list": {"i": ["1", "1", "1", "1"]}}, "dilations": {"list": {"i": ["1", "1", "1", "1"]}}, "explicit_paddings": {"list": {}}}}, {"name": "BiasAdd_26", "op": "_FusedConv2D", "input": ["DepthwiseConv2dNative_8", "Const_44", "Const_43"], "device": "/device:CPU:0", "attr": {"strides": {"list": {"i": ["1", "1", "1", "1"]}}, "use_cudnn_on_gpu": {"b": true}, "fused_ops": {"list": {"s": ["Qmlhc0FkZA=="]}}, "data_format": {"s": "TkhXQw=="}, "padding": {"s": "VkFMSUQ="}, "dilations": {"list": {"i": ["1", "1", "1", "1"]}}, "num_args": {"i": "1"}, "epsilon": {"f": 0.0}, "explicit_paddings": {"list": {}}, "T": {"type": "DT_FLOAT"}}}, {"name": "AddV2_5", "op": "AddV2", "input": ["AddV2_4", "BiasAdd_26"], "attr": {"T": {"type": "DT_FLOAT"}}}, {"name": "Relu_18", "op": "_FusedConv2D", "input": ["AddV2_5", "Const_42", "Const_41"], "device": "/device:CPU:0", "attr": {"padding": {"s": "VkFMSUQ="}, "use_cudnn_on_gpu": {"b": true}, "data_format": {"s": "TkhXQw=="}, "strides": {"list": {"i": ["1", "1", "1", "1"]}}, "T": {"type": "DT_FLOAT"}, "explicit_paddings": {"list": {}}, "epsilon": {"f": 0.0}, "dilations": {"list": {"i": ["1", "1", "1", "1"]}}, "fused_ops": {"list": {"s": ["Qmlhc0FkZA==", "UmVsdQ=="]}}, "num_args": {"i": "1"}}}, {"name": "DepthwiseConv2dNative_9", "op": "FusedDepthwiseConv2dNative", "input": ["Relu_18", "Const_40", "Const_39"], "attr": {"padding": {"s": "U0FNRQ=="}, "data_format": {"s": "TkhXQw=="}, "fused_ops": {"list": {"s": ["Qmlhc0FkZA==", "UmVsdQ=="]}}, "strides": {"list": {"i": ["1", "1", "1", "1"]}}, "num_args": {"i": "1"}, "explicit_paddings": {"list": {}}, "dilations": {"list": {"i": ["1", "1", "1", "1"]}}, "T": {"type": "DT_FLOAT"}}}, {"name": "BiasAdd_29", "op": "_FusedConv2D", "input": ["DepthwiseConv2dNative_9", "Const_38", "Const_37"], "device": "/device:CPU:0", "attr": {"epsilon": {"f": 0.0}, "strides": {"list": {"i": ["1", "1", "1", "1"]}}, "padding": {"s": "VkFMSUQ="}, "fused_ops": {"list": {"s": ["Qmlhc0FkZA=="]}}, "explicit_paddings": {"list": {}}, "T": {"type": "DT_FLOAT"}, "use_cudnn_on_gpu": {"b": true}, "data_format": {"s": "TkhXQw=="}, "dilations": {"list": {"i": ["1", "1", "1", "1"]}}, "num_args": {"i": "1"}}}, {"name": "AddV2_6", "op": "AddV2", "input": ["AddV2_5", "BiasAdd_29"], "attr": {"T": {"type": "DT_FLOAT"}}}, {"name": "Relu_20", "op": "_FusedConv2D", "input": ["AddV2_6", "Const_36", "Const_35"], "device": "/device:CPU:0", "attr": {"padding": {"s": "VkFMSUQ="}, "num_args": {"i": "1"}, "strides": {"list": {"i": ["1", "1", "1", "1"]}}, "explicit_paddings": {"list": {}}, "fused_ops": {"list": {"s": ["Qmlhc0FkZA==", "UmVsdQ=="]}}, "data_format": {"s": "TkhXQw=="}, "epsilon": {"f": 0.0}, "dilations": {"list": {"i": ["1", "1", "1", "1"]}}, "use_cudnn_on_gpu": {"b": true}, "T": {"type": "DT_FLOAT"}}}, {"name": "DepthwiseConv2dNative_10", "op": "FusedDepthwiseConv2dNative", "input": ["Relu_20", "Const_34", "Const_33"], "attr": {"explicit_paddings": {"list": {}}, "padding": {"s": "U0FNRQ=="}, "T": {"type": "DT_FLOAT"}, "fused_ops": {"list": {"s": ["Qmlhc0FkZA==", "UmVsdQ=="]}}, "data_format": {"s": "TkhXQw=="}, "strides": {"list": {"i": ["1", "1", "1", "1"]}}, "num_args": {"i": "1"}, "dilations": {"list": {"i": ["1", "1", "1", "1"]}}}}, {"name": "BiasAdd_32", "op": "_FusedConv2D", "input": ["DepthwiseConv2dNative_10", "Const_32", "Const_31"], "device": "/device:CPU:0", "attr": {"epsilon": {"f": 0.0}, "num_args": {"i": "1"}, "fused_ops": {"list": {"s": ["Qmlhc0FkZA=="]}}, "padding": {"s": "VkFMSUQ="}, "T": {"type": "DT_FLOAT"}, "explicit_paddings": {"list": {}}, "strides": {"list": {"i": ["1", "1", "1", "1"]}}, "use_cudnn_on_gpu": {"b": true}, "dilations": {"list": {"i": ["1", "1", "1", "1"]}}, "data_format": {"s": "TkhXQw=="}}}, {"name": "Relu_22", "op": "_FusedConv2D", "input": ["BiasAdd_32", "Const_30", "Const_29"], "device": "/device:CPU:0", "attr": {"use_cudnn_on_gpu": {"b": true}, "epsilon": {"f": 0.0}, "padding": {"s": "VkFMSUQ="}, "T": {"type": "DT_FLOAT"}, "fused_ops": {"list": {"s": ["Qmlhc0FkZA==", "UmVsdQ=="]}}, "strides": {"list": {"i": ["1", "1", "1", "1"]}}, "num_args": {"i": "1"}, "explicit_paddings": {"list": {}}, "data_format": {"s": "TkhXQw=="}, "dilations": {"list": {"i": ["1", "1", "1", "1"]}}}}, {"name": "DepthwiseConv2dNative_11", "op": "FusedDepthwiseConv2dNative", "input": ["Relu_22", "Const_28", "Const_27"], "attr": {"explicit_paddings": {"list": {}}, "fused_ops": {"list": {"s": ["Qmlhc0FkZA==", "UmVsdQ=="]}}, "num_args": {"i": "1"}, "T": {"type": "DT_FLOAT"}, "strides": {"list": {"i": ["1", "1", "1", "1"]}}, "data_format": {"s": "TkhXQw=="}, "dilations": {"list": {"i": ["1", "1", "1", "1"]}}, "padding": {"s": "U0FNRQ=="}}}, {"name": "BiasAdd_35", "op": "_FusedConv2D", "input": ["DepthwiseConv2dNative_11", "Const_26", "Const_25"], "device": "/device:CPU:0", "attr": {"use_cudnn_on_gpu": {"b": true}, "strides": {"list": {"i": ["1", "1", "1", "1"]}}, "T": {"type": "DT_FLOAT"}, "dilations": {"list": {"i": ["1", "1", "1", "1"]}}, "data_format": {"s": "TkhXQw=="}, "explicit_paddings": {"list": {}}, "padding": {"s": "VkFMSUQ="}, "num_args": {"i": "1"}, "epsilon": {"f": 0.0}, "fused_ops": {"list": {"s": ["Qmlhc0FkZA=="]}}}}, {"name": "AddV2_7", "op": "AddV2", "input": ["BiasAdd_32", "BiasAdd_35"], "attr": {"T": {"type": "DT_FLOAT"}}}, {"name": "Relu_24", "op": "_FusedConv2D", "input": ["AddV2_7", "Const_24", "Const_23"], "device": "/device:CPU:0", "attr": {"explicit_paddings": {"list": {}}, "epsilon": {"f": 0.0}, "use_cudnn_on_gpu": {"b": true}, "padding": {"s": "VkFMSUQ="}, "T": {"type": "DT_FLOAT"}, "num_args": {"i": "1"}, "data_format": {"s": "TkhXQw=="}, "strides": {"list": {"i": ["1", "1", "1", "1"]}}, "dilations": {"list": {"i": ["1", "1", "1", "1"]}}, "fused_ops": {"list": {"s": ["Qmlhc0FkZA==", "UmVsdQ=="]}}}}, {"name": "DepthwiseConv2dNative_12", "op": "FusedDepthwiseConv2dNative", "input": ["Relu_24", "Const_22", "Const_21"], "attr": {"dilations": {"list": {"i": ["1", "1", "1", "1"]}}, "padding": {"s": "U0FNRQ=="}, "T": {"type": "DT_FLOAT"}, "explicit_paddings": {"list": {}}, "num_args": {"i": "1"}, "data_format": {"s": "TkhXQw=="}, "strides": {"list": {"i": ["1", "1", "1", "1"]}}, "fused_ops": {"list": {"s": ["Qmlhc0FkZA==", "UmVsdQ=="]}}}}, {"name": "BiasAdd_38", "op": "_FusedConv2D", "input": ["DepthwiseConv2dNative_12", "Const_20", "Const_19"], "device": "/device:CPU:0", "attr": {"num_args": {"i": "1"}, "strides": {"list": {"i": ["1", "1", "1", "1"]}}, "fused_ops": {"list": {"s": ["Qmlhc0FkZA=="]}}, "data_format": {"s": "TkhXQw=="}, "dilations": {"list": {"i": ["1", "1", "1", "1"]}}, "padding": {"s": "VkFMSUQ="}, "epsilon": {"f": 0.0}, "T": {"type": "DT_FLOAT"}, "explicit_paddings": {"list": {}}, "use_cudnn_on_gpu": {"b": true}}}, {"name": "AddV2_8", "op": "AddV2", "input": ["AddV2_7", "BiasAdd_38"], "attr": {"T": {"type": "DT_FLOAT"}}}, {"name": "Relu_26", "op": "_FusedConv2D", "input": ["AddV2_8", "Const_18", "Const_17"], "device": "/device:CPU:0", "attr": {"T": {"type": "DT_FLOAT"}, "num_args": {"i": "1"}, "padding": {"s": "VkFMSUQ="}, "strides": {"list": {"i": ["1", "1", "1", "1"]}}, "epsilon": {"f": 0.0}, "fused_ops": {"list": {"s": ["Qmlhc0FkZA==", "UmVsdQ=="]}}, "dilations": {"list": {"i": ["1", "1", "1", "1"]}}, "data_format": {"s": "TkhXQw=="}, "use_cudnn_on_gpu": {"b": true}, "explicit_paddings": {"list": {}}}}, {"name": "DepthwiseConv2dNative_13", "op": "FusedDepthwiseConv2dNative", "input": ["Relu_26", "Const_16", "Const_15"], "attr": {"data_format": {"s": "TkhXQw=="}, "fused_ops": {"list": {"s": ["Qmlhc0FkZA==", "UmVsdQ=="]}}, "dilations": {"list": {"i": ["1", "1", "1", "1"]}}, "padding": {"s": "U0FNRQ=="}, "explicit_paddings": {"list": {}}, "num_args": {"i": "1"}, "strides": {"list": {"i": ["1", "1", "1", "1"]}}, "T": {"type": "DT_FLOAT"}}}, {"name": "BiasAdd_41", "op": "_FusedConv2D", "input": ["DepthwiseConv2dNative_13", "Const_14", "Const_13"], "device": "/device:CPU:0", "attr": {"data_format": {"s": "TkhXQw=="}, "padding": {"s": "VkFMSUQ="}, "T": {"type": "DT_FLOAT"}, "num_args": {"i": "1"}, "dilations": {"list": {"i": ["1", "1", "1", "1"]}}, "fused_ops": {"list": {"s": ["Qmlhc0FkZA=="]}}, "use_cudnn_on_gpu": {"b": true}, "strides": {"list": {"i": ["1", "1", "1", "1"]}}, "explicit_paddings": {"list": {}}, "epsilon": {"f": 0.0}}}, {"name": "Relu_28", "op": "_FusedConv2D", "input": ["BiasAdd_41", "Const_12", "Const_11"], "device": "/device:CPU:0", "attr": {"explicit_paddings": {"list": {}}, "padding": {"s": "VkFMSUQ="}, "num_args": {"i": "1"}, "epsilon": {"f": 0.0}, "data_format": {"s": "TkhXQw=="}, "fused_ops": {"list": {"s": ["Qmlhc0FkZA==", "UmVsdQ=="]}}, "use_cudnn_on_gpu": {"b": true}, "dilations": {"list": {"i": ["1", "1", "1", "1"]}}, "strides": {"list": {"i": ["1", "1", "1", "1"]}}, "T": {"type": "DT_FLOAT"}}}, {"name": "DepthwiseConv2dNative_14", "op": "FusedDepthwiseConv2dNative", "input": ["Relu_28", "Const_10", "Const_9"], "attr": {"num_args": {"i": "1"}, "strides": {"list": {"i": ["1", "1", "1", "1"]}}, "padding": {"s": "U0FNRQ=="}, "data_format": {"s": "TkhXQw=="}, "fused_ops": {"list": {"s": ["Qmlhc0FkZA==", "UmVsdQ=="]}}, "dilations": {"list": {"i": ["1", "1", "1", "1"]}}, "explicit_paddings": {"list": {}}, "T": {"type": "DT_FLOAT"}}}, {"name": "BiasAdd_44", "op": "_FusedConv2D", "input": ["DepthwiseConv2dNative_14", "Const_8", "Const_7"], "device": "/device:CPU:0", "attr": {"fused_ops": {"list": {"s": ["Qmlhc0FkZA=="]}}, "dilations": {"list": {"i": ["1", "1", "1", "1"]}}, "num_args": {"i": "1"}, "epsilon": {"f": 0.0}, "explicit_paddings": {"list": {}}, "T": {"type": "DT_FLOAT"}, "use_cudnn_on_gpu": {"b": true}, "data_format": {"s": "TkhXQw=="}, "padding": {"s": "VkFMSUQ="}, "strides": {"list": {"i": ["1", "1", "1", "1"]}}}}, {"name": "AddV2_9", "op": "AddV2", "input": ["BiasAdd_41", "BiasAdd_44"], "attr": {"T": {"type": "DT_FLOAT"}}}, {"name": "Relu_30", "op": "_FusedConv2D", "input": ["AddV2_9", "Const_6", "Const_5"], "device": "/device:CPU:0", "attr": {"padding": {"s": "VkFMSUQ="}, "use_cudnn_on_gpu": {"b": true}, "T": {"type": "DT_FLOAT"}, "fused_ops": {"list": {"s": ["Qmlhc0FkZA==", "UmVsdQ=="]}}, "data_format": {"s": "TkhXQw=="}, "epsilon": {"f": 0.0}, "dilations": {"list": {"i": ["1", "1", "1", "1"]}}, "num_args": {"i": "1"}, "explicit_paddings": {"list": {}}, "strides": {"list": {"i": ["1", "1", "1", "1"]}}}}, {"name": "DepthwiseConv2dNative_15", "op": "FusedDepthwiseConv2dNative", "input": ["Relu_30", "Const_4", "Const_3"], "attr": {"data_format": {"s": "TkhXQw=="}, "strides": {"list": {"i": ["1", "1", "1", "1"]}}, "explicit_paddings": {"list": {}}, "padding": {"s": "U0FNRQ=="}, "T": {"type": "DT_FLOAT"}, "num_args": {"i": "1"}, "dilations": {"list": {"i": ["1", "1", "1", "1"]}}, "fused_ops": {"list": {"s": ["Qmlhc0FkZA==", "UmVsdQ=="]}}}}, {"name": "BiasAdd_47", "op": "_FusedConv2D", "input": ["DepthwiseConv2dNative_15", "Const_2", "Const_1"], "device": "/device:CPU:0", "attr": {"dilations": {"list": {"i": ["1", "1", "1", "1"]}}, "fused_ops": {"list": {"s": ["Qmlhc0FkZA=="]}}, "padding": {"s": "VkFMSUQ="}, "strides": {"list": {"i": ["1", "1", "1", "1"]}}, "T": {"type": "DT_FLOAT"}, "use_cudnn_on_gpu": {"b": true}, "explicit_paddings": {"list": {}}, "num_args": {"i": "1"}, "data_format": {"s": "TkhXQw=="}, "epsilon": {"f": 0.0}}}, {"name": "AddV2_10", "op": "AddV2", "input": ["AddV2_9", "BiasAdd_47"], "attr": {"T": {"type": "DT_FLOAT"}}}, {"name": "Conv2D_32", "op": "Conv2D", "input": ["AddV2_10", "Const"], "device": "/device:CPU:0", "attr": {"T": {"type": "DT_FLOAT"}, "strides": {"list": {"i": ["1", "1", "1", "1"]}}, "use_cudnn_on_gpu": {"b": true}, "explicit_paddings": {"list": {}}, "padding": {"s": "VkFMSUQ="}, "dilations": {"list": {"i": ["1", "1", "1", "1"]}}, "data_format": {"s": "TkhXQw=="}}}, {"name": "Conv2D_33", "op": "Conv2D", "input": ["AddV2_10", "Const_99"], "device": "/device:CPU:0", "attr": {"explicit_paddings": {"list": {}}, "T": {"type": "DT_FLOAT"}, "data_format": {"s": "TkhXQw=="}, "dilations": {"list": {"i": ["1", "1", "1", "1"]}}, "strides": {"list": {"i": ["1", "1", "1", "1"]}}, "use_cudnn_on_gpu": {"b": true}, "padding": {"s": "VkFMSUQ="}}}, {"name": "transpose", "op": "Transpose", "input": ["Conv2D_32", "Const_101"], "attr": {"Tperm": {"type": "DT_INT32"}, "T": {"type": "DT_FLOAT"}}}, {"name": "transpose_1", "op": "Transpose", "input": ["Conv2D_33", "Const_101"], "attr": {"Tperm": {"type": "DT_INT32"}, "T": {"type": "DT_FLOAT"}}}, {"name": "Reshape", "op": "Reshape", "input": ["transpose", "Const_100"], "attr": {"Tshape": {"type": "DT_INT64"}, "T": {"type": "DT_FLOAT"}}}, {"name": "Reshape_1", "op": "Reshape", "input": ["transpose_1", "Const_103"], "attr": {"T": {"type": "DT_FLOAT"}, "Tshape": {"type": "DT_INT64"}}}, {"name": "Softmax", "op": "Softmax", "input": ["Reshape"], "attr": {"T": {"type": "DT_FLOAT"}}}, {"name": "Softmax_1", "op": "Softmax", "input": ["Reshape_1"], "attr": {"T": {"type": "DT_FLOAT"}}}, {"name": "classes", "op": "Identity", "input": ["Softmax"], "attr": {"T": {"type": "DT_FLOAT"}}}, {"name": "Reshape_2", "op": "Reshape", "input": ["Softmax_1", "Const_102"], "attr": {"Tshape": {"type": "DT_INT64"}, "T": {"type": "DT_FLOAT"}}}, {"name": "Sum", "op": "Sum", "input": ["Reshape_2", "Const_106"], "attr": {"T": {"type": "DT_FLOAT"}, "keep_dims": {"b": false}, "Tidx": {"type": "DT_INT32"}}}, {"name": "Sqrt", "op": "Sqrt", "input": ["Reshape_2"], "attr": {"T": {"type": "DT_FLOAT"}}}, {"name": "Sum_2", "op": "Sum", "input": ["Reshape_2", "Const_108"], "attr": {"Tidx": {"type": "DT_INT32"}, "T": {"type": "DT_FLOAT"}, "keep_dims": {"b": false}}}, {"name": "Mul_1", "op": "Mul", "input": ["Const_107", "Sum"], "attr": {"T": {"type": "DT_FLOAT"}}}, {"name": "Sum_4", "op": "Sum", "input": ["Sqrt", "Const_109"], "attr": {"T": {"type": "DT_FLOAT"}, "Tidx": {"type": "DT_INT32"}, "keep_dims": {"b": false}}}, {"name": "Mul_2", "op": "Mul", "input": ["Const_107", "Sum_2"], "attr": {"T": {"type": "DT_FLOAT"}}}, {"name": "Sum_1", "op": "Sum", "input": ["Mul_1", "Const_104"], "attr": {"Tidx": {"type": "DT_INT32"}, "keep_dims": {"b": true}, "T": {"type": "DT_FLOAT"}}}, {"name": "Mul_3", "op": "Mul", "input": ["Const_110", "Sum_4"], "attr": {"T": {"type": "DT_FLOAT"}}}, {"name": "Sum_3", "op": "Sum", "input": ["Mul_2", "Const_104"], "attr": {"Tidx": {"type": "DT_INT32"}, "T": {"type": "DT_FLOAT"}, "keep_dims": {"b": true}}}, {"name": "Sub_1", "op": "Sub", "input": ["Const_93", "Mul_3"], "attr": {"T": {"type": "DT_FLOAT"}}}, {"name": "ConcatV2", "op": "ConcatV2", "input": ["Sum_3", "Sum_1", "Const_104"], "attr": {"N": {"i": "2"}, "Tidx": {"type": "DT_INT32"}, "T": {"type": "DT_FLOAT"}}}, {"name": "Mean", "op": "Mean", "input": ["Sub_1", "Const_104"], "attr": {"Tidx": {"type": "DT_INT32"}, "keep_dims": {"b": false}, "T": {"type": "DT_FLOAT"}}}, {"name": "SplitV", "op": "SplitV", "input": ["ConcatV2", "Const_105", "Const_104"], "attr": {"Tlen": {"type": "DT_INT32"}, "num_split": {"i": "2"}, "T": {"type": "DT_FLOAT"}}}, {"name": "confidence", "op": "Identity", "input": ["Mean"], "attr": {"T": {"type": "DT_FLOAT"}}}, {"name": "ConcatV2_1", "op": "ConcatV2", "input": ["SplitV:1", "SplitV", "Const_104"], "attr": {"N": {"i": "2"}, "T": {"type": "DT_FLOAT"}, "Tidx": {"type": "DT_INT32"}}}, {"name": "coords", "op": "Identity", "input": ["ConcatV2_1"], "attr": {"T": {"type": "DT_FLOAT"}}}], "library": {}, "versions": {"producer": 808}}, "weightsManifest": [{"paths": ["group1-shard1of1.bin"], "weights": [{"name": "Const", "shape": [8, 8, 160, 4], "dtype": "float32", "qdtype": "int8", "quant_type": 1, "scale_dtype": "float64", "offset_dtype": "int64", "quant_dim": 3}, {"name": "Const_100", "shape": [3], "dtype": "int32", "qdtype": "int32", "quant_type": 0}, {"name": "Const_110", "shape": [], "dtype": "float32", "qdtype": "float32", "quant_type": 0}, {"name": "Const_109", "shape": [2], "dtype": "int32", "qdtype": "int32", "quant_type": 0}, {"name": "Const_108", "shape": [], "dtype": "int32", "qdtype": "int32", "quant_type": 0}, {"name": "Const_107", "shape": [8], "dtype": "float32", "qdtype": "float32", "quant_type": 0}, {"name": "Const_98", "shape": [3, 3, 16, 1], "dtype": "float32", "qdtype": "int8", "quant_type": 1, "scale_dtype": "float64", "offset_dtype": "int64", "quant_dim": 2}, {"name": "Const_97", "shape": [16], "dtype": "float32", "qdtype": "float32", "quant_type": 0}, {"name": "Const_96", "shape": [1, 1, 16, 16], "dtype": "float32", "qdtype": "int8", "quant_type": 1, "scale_dtype": "float64", "offset_dtype": "int64", "quant_dim": 3}, {"name": "Const_95", "shape": [16], "dtype": "float32", "qdtype": "float32", "quant_type": 0}, {"name": "Const_94", "shape": [], "dtype": "float32", "qdtype": "float32", "quant_type": 0}, {"name": "Const_93", "shape": [], "dtype": "float32", "qdtype": "float32", "quant_type": 0}, {"name": "Const_92", "shape": [3, 3, 3, 16], "dtype": "float32", "qdtype": "int8", "quant_type": 1, "scale_dtype": "float64", "offset_dtype": "int64", "quant_dim": 3}, {"name": "Const_91", "shape": [16], "dtype": "float32", "qdtype": "float32", "quant_type": 0}, {"name": "Const_90", "shape": [1, 1, 16, 96], "dtype": "float32", "qdtype": "int8", "quant_type": 1, "scale_dtype": "float64", "offset_dtype": "int64", "quant_dim": 3}, {"name": "Const_89", "shape": [96], "dtype": "float32", "qdtype": "float32", "quant_type": 0}, {"name": "Const_88", "shape": [3, 3, 96, 1], "dtype": "float32", "qdtype": "int8", "quant_type": 1, "scale_dtype": "float64", "offset_dtype": "int64", "quant_dim": 2}, {"name": "Const_87", "shape": [96], "dtype": "float32", "qdtype": "float32", "quant_type": 0}, {"name": "Const_86", "shape": [1, 1, 96, 24], "dtype": "float32", "qdtype": "int8", "quant_type": 1, "scale_dtype": "float64", "offset_dtype": "int64", "quant_dim": 3}, {"name": "Const_85", "shape": [24], "dtype": "float32", "qdtype": "float32", "quant_type": 0}, {"name": "Const_84", "shape": [1, 1, 24, 144], "dtype": "float32", "qdtype": "int8", "quant_type": 1, "scale_dtype": "float64", "offset_dtype": "int64", "quant_dim": 3}, {"name": "Const_83", "shape": [144], "dtype": "float32", "qdtype": "float32", "quant_type": 0}, {"name": "Const_82", "shape": [3, 3, 144, 1], "dtype": "float32", "qdtype": "int8", "quant_type": 1, "scale_dtype": "float64", "offset_dtype": "int64", "quant_dim": 2}, {"name": "Const_81", "shape": [144], "dtype": "float32", "qdtype": "float32", "quant_type": 0}, {"name": "Const_80", "shape": [1, 1, 144, 24], "dtype": "float32", "qdtype": "int8", "quant_type": 1, "scale_dtype": "float64", "offset_dtype": "int64", "quant_dim": 3}, {"name": "Const_79", "shape": [24], "dtype": "float32", "qdtype": "float32", "quant_type": 0}, {"name": "Const_78", "shape": [1, 1, 24, 144], "dtype": "float32", "qdtype": "int8", "quant_type": 1, "scale_dtype": "float64", "offset_dtype": "int64", "quant_dim": 3}, {"name": "Const_77", "shape": [144], "dtype": "float32", "qdtype": "float32", "quant_type": 0}, {"name": "Const_76", "shape": [3, 3, 144, 1], "dtype": "float32", "qdtype": "int8", "quant_type": 1, "scale_dtype": "float64", "offset_dtype": "int64", "quant_dim": 2}, {"name": "Const_75", "shape": [144], "dtype": "float32", "qdtype": "float32", "quant_type": 0}, {"name": "Const_74", "shape": [1, 1, 144, 32], "dtype": "float32", "qdtype": "int8", "quant_type": 1, "scale_dtype": "float64", "offset_dtype": "int64", "quant_dim": 3}, {"name": "Const_73", "shape": [32], "dtype": "float32", "qdtype": "float32", "quant_type": 0}, {"name": "Const_72", "shape": [1, 1, 32, 192], "dtype": "float32", "qdtype": "int8", "quant_type": 1, "scale_dtype": "float64", "offset_dtype": "int64", "quant_dim": 3}, {"name": "Const_71", "shape": [192], "dtype": "float32", "qdtype": "float32", "quant_type": 0}, {"name": "Const_70", "shape": [3, 3, 192, 1], "dtype": "float32", "qdtype": "int8", "quant_type": 1, "scale_dtype": "float64", "offset_dtype": "int64", "quant_dim": 2}, {"name": "Const_69", "shape": [192], "dtype": "float32", "qdtype": "float32", "quant_type": 0}, {"name": "Const_68", "shape": [1, 1, 192, 32], "dtype": "float32", "qdtype": "int8", "quant_type": 1, "scale_dtype": "float64", "offset_dtype": "int64", "quant_dim": 3}, {"name": "Const_67", "shape": [32], "dtype": "float32", "qdtype": "float32", "quant_type": 0}, {"name": "Const_66", "shape": [1, 1, 32, 192], "dtype": "float32", "qdtype": "int8", "quant_type": 1, "scale_dtype": "float64", "offset_dtype": "int64", "quant_dim": 3}, {"name": "Const_65", "shape": [192], "dtype": "float32", "qdtype": "float32", "quant_type": 0}, {"name": "Const_64", "shape": [3, 3, 192, 1], "dtype": "float32", "qdtype": "int8", "quant_type": 1, "scale_dtype": "float64", "offset_dtype": "int64", "quant_dim": 2}, {"name": "Const_63", "shape": [192], "dtype": "float32", "qdtype": "float32", "quant_type": 0}, {"name": "Const_62", "shape": [1, 1, 192, 32], "dtype": "float32", "qdtype": "int8", "quant_type": 1, "scale_dtype": "float64", "offset_dtype": "int64", "quant_dim": 3}, {"name": "Const_61", "shape": [32], "dtype": "float32", "qdtype": "float32", "quant_type": 0}, {"name": "Const_60", "shape": [1, 1, 32, 192], "dtype": "float32", "qdtype": "int8", "quant_type": 1, "scale_dtype": "float64", "offset_dtype": "int64", "quant_dim": 3}, {"name": "Const_59", "shape": [192], "dtype": "float32", "qdtype": "float32", "quant_type": 0}, {"name": "Const_58", "shape": [3, 3, 192, 1], "dtype": "float32", "qdtype": "int8", "quant_type": 1, "scale_dtype": "float64", "offset_dtype": "int64", "quant_dim": 2}, {"name": "Const_57", "shape": [192], "dtype": "float32", "qdtype": "float32", "quant_type": 0}, {"name": "Const_56", "shape": [1, 1, 192, 64], "dtype": "float32", "qdtype": "int8", "quant_type": 1, "scale_dtype": "float64", "offset_dtype": "int64", "quant_dim": 3}, {"name": "Const_55", "shape": [64], "dtype": "float32", "qdtype": "float32", "quant_type": 0}, {"name": "Const_54", "shape": [1, 1, 64, 384], "dtype": "float32", "qdtype": "int8", "quant_type": 1, "scale_dtype": "float64", "offset_dtype": "int64", "quant_dim": 3}, {"name": "Const_53", "shape": [384], "dtype": "float32", "qdtype": "float32", "quant_type": 0}, {"name": "Const_52", "shape": [3, 3, 384, 1], "dtype": "float32", "qdtype": "int8", "quant_type": 1, "scale_dtype": "float64", "offset_dtype": "int64", "quant_dim": 2}, {"name": "Const_51", "shape": [384], "dtype": "float32", "qdtype": "float32", "quant_type": 0}, {"name": "Const_50", "shape": [1, 1, 384, 64], "dtype": "float32", "qdtype": "int8", "quant_type": 1, "scale_dtype": "float64", "offset_dtype": "int64", "quant_dim": 3}, {"name": "Const_49", "shape": [64], "dtype": "float32", "qdtype": "float32", "quant_type": 0}, {"name": "Const_48", "shape": [1, 1, 64, 384], "dtype": "float32", "qdtype": "int8", "quant_type": 1, "scale_dtype": "float64", "offset_dtype": "int64", "quant_dim": 3}, {"name": "Const_47", "shape": [384], "dtype": "float32", "qdtype": "float32", "quant_type": 0}, {"name": "Const_46", "shape": [3, 3, 384, 1], "dtype": "float32", "qdtype": "int8", "quant_type": 1, "scale_dtype": "float64", "offset_dtype": "int64", "quant_dim": 2}, {"name": "Const_45", "shape": [384], "dtype": "float32", "qdtype": "float32", "quant_type": 0}, {"name": "Const_44", "shape": [1, 1, 384, 64], "dtype": "float32", "qdtype": "int8", "quant_type": 1, "scale_dtype": "float64", "offset_dtype": "int64", "quant_dim": 3}, {"name": "Const_43", "shape": [64], "dtype": "float32", "qdtype": "float32", "quant_type": 0}, {"name": "Const_42", "shape": [1, 1, 64, 384], "dtype": "float32", "qdtype": "int8", "quant_type": 1, "scale_dtype": "float64", "offset_dtype": "int64", "quant_dim": 3}, {"name": "Const_41", "shape": [384], "dtype": "float32", "qdtype": "float32", "quant_type": 0}, {"name": "Const_40", "shape": [3, 3, 384, 1], "dtype": "float32", "qdtype": "int8", "quant_type": 1, "scale_dtype": "float64", "offset_dtype": "int64", "quant_dim": 2}, {"name": "Const_39", "shape": [384], "dtype": "float32", "qdtype": "float32", "quant_type": 0}, {"name": "Const_38", "shape": [1, 1, 384, 64], "dtype": "float32", "qdtype": "int8", "quant_type": 1, "scale_dtype": "float64", "offset_dtype": "int64", "quant_dim": 3}, {"name": "Const_37", "shape": [64], "dtype": "float32", "qdtype": "float32", "quant_type": 0}, {"name": "Const_36", "shape": [1, 1, 64, 384], "dtype": "float32", "qdtype": "int8", "quant_type": 1, "scale_dtype": "float64", "offset_dtype": "int64", "quant_dim": 3}, {"name": "Const_35", "shape": [384], "dtype": "float32", "qdtype": "float32", "quant_type": 0}, {"name": "Const_34", "shape": [3, 3, 384, 1], "dtype": "float32", "qdtype": "int8", "quant_type": 1, "scale_dtype": "float64", "offset_dtype": "int64", "quant_dim": 2}, {"name": "Const_33", "shape": [384], "dtype": "float32", "qdtype": "float32", "quant_type": 0}, {"name": "Const_32", "shape": [1, 1, 384, 96], "dtype": "float32", "qdtype": "int8", "quant_type": 1, "scale_dtype": "float64", "offset_dtype": "int64", "quant_dim": 3}, {"name": "Const_31", "shape": [96], "dtype": "float32", "qdtype": "float32", "quant_type": 0}, {"name": "Const_30", "shape": [1, 1, 96, 576], "dtype": "float32", "qdtype": "int8", "quant_type": 1, "scale_dtype": "float64", "offset_dtype": "int64", "quant_dim": 3}, {"name": "Const_29", "shape": [576], "dtype": "float32", "qdtype": "float32", "quant_type": 0}, {"name": "Const_28", "shape": [3, 3, 576, 1], "dtype": "float32", "qdtype": "int8", "quant_type": 1, "scale_dtype": "float64", "offset_dtype": "int64", "quant_dim": 2}, {"name": "Const_27", "shape": [576], "dtype": "float32", "qdtype": "float32", "quant_type": 0}, {"name": "Const_26", "shape": [1, 1, 576, 96], "dtype": "float32", "qdtype": "int8", "quant_type": 1, "scale_dtype": "float64", "offset_dtype": "int64", "quant_dim": 3}, {"name": "Const_25", "shape": [96], "dtype": "float32", "qdtype": "float32", "quant_type": 0}, {"name": "Const_24", "shape": [1, 1, 96, 576], "dtype": "float32", "qdtype": "int8", "quant_type": 1, "scale_dtype": "float64", "offset_dtype": "int64", "quant_dim": 3}, {"name": "Const_23", "shape": [576], "dtype": "float32", "qdtype": "float32", "quant_type": 0}, {"name": "Const_22", "shape": [3, 3, 576, 1], "dtype": "float32", "qdtype": "int8", "quant_type": 1, "scale_dtype": "float64", "offset_dtype": "int64", "quant_dim": 2}, {"name": "Const_21", "shape": [576], "dtype": "float32", "qdtype": "float32", "quant_type": 0}, {"name": "Const_20", "shape": [1, 1, 576, 96], "dtype": "float32", "qdtype": "int8", "quant_type": 1, "scale_dtype": "float64", "offset_dtype": "int64", "quant_dim": 3}, {"name": "Const_19", "shape": [96], "dtype": "float32", "qdtype": "float32", "quant_type": 0}, {"name": "Const_18", "shape": [1, 1, 96, 576], "dtype": "float32", "qdtype": "int8", "quant_type": 1, "scale_dtype": "float64", "offset_dtype": "int64", "quant_dim": 3}, {"name": "Const_17", "shape": [576], "dtype": "float32", "qdtype": "float32", "quant_type": 0}, {"name": "Const_16", "shape": [3, 3, 576, 1], "dtype": "float32", "qdtype": "int8", "quant_type": 1, "scale_dtype": "float64", "offset_dtype": "int64", "quant_dim": 2}, {"name": "Const_15", "shape": [576], "dtype": "float32", "qdtype": "float32", "quant_type": 0}, {"name": "Const_14", "shape": [1, 1, 576, 160], "dtype": "float32", "qdtype": "int8", "quant_type": 1, "scale_dtype": "float64", "offset_dtype": "int64", "quant_dim": 3}, {"name": "Const_13", "shape": [160], "dtype": "float32", "qdtype": "float32", "quant_type": 0}, {"name": "Const_12", "shape": [1, 1, 160, 960], "dtype": "float32", "qdtype": "int8", "quant_type": 1, "scale_dtype": "float64", "offset_dtype": "int64", "quant_dim": 3}, {"name": "Const_11", "shape": [960], "dtype": "float32", "qdtype": "float32", "quant_type": 0}, {"name": "Const_10", "shape": [3, 3, 960, 1], "dtype": "float32", "qdtype": "int8", "quant_type": 1, "scale_dtype": "float64", "offset_dtype": "int64", "quant_dim": 2}, {"name": "Const_9", "shape": [960], "dtype": "float32", "qdtype": "float32", "quant_type": 0}, {"name": "Const_8", "shape": [1, 1, 960, 160], "dtype": "float32", "qdtype": "int8", "quant_type": 1, "scale_dtype": "float64", "offset_dtype": "int64", "quant_dim": 3}, {"name": "Const_7", "shape": [160], "dtype": "float32", "qdtype": "float32", "quant_type": 0}, {"name": "Const_6", "shape": [1, 1, 160, 960], "dtype": "float32", "qdtype": "int8", "quant_type": 1, "scale_dtype": "float64", "offset_dtype": "int64", "quant_dim": 3}, {"name": "Const_5", "shape": [960], "dtype": "float32", "qdtype": "float32", "quant_type": 0}, {"name": "Const_4", "shape": [3, 3, 960, 1], "dtype": "float32", "qdtype": "int8", "quant_type": 1, "scale_dtype": "float64", "offset_dtype": "int64", "quant_dim": 2}, {"name": "Const_3", "shape": [960], "dtype": "float32", "qdtype": "float32", "quant_type": 0}, {"name": "Const_2", "shape": [1, 1, 960, 160], "dtype": "float32", "qdtype": "int8", "quant_type": 1, "scale_dtype": "float64", "offset_dtype": "int64", "quant_dim": 3}, {"name": "Const_1", "shape": [160], "dtype": "float32", "qdtype": "float32", "quant_type": 0}, {"name": "Const_99", "shape": [1, 1, 160, 6], "dtype": "float32", "qdtype": "int8", "quant_type": 1, "scale_dtype": "float64", "offset_dtype": "int64", "quant_dim": 3}, {"name": "Const_101", "shape": [4], "dtype": "int32", "qdtype": "int32", "quant_type": 0}, {"name": "Const_103", "shape": [2], "dtype": "int32", "qdtype": "int32", "quant_type": 0}, {"name": "Const_102", "shape": [4], "dtype": "int32", "qdtype": "int32", "quant_type": 0}, {"name": "Const_106", "shape": [], "dtype": "int32", "qdtype": "int32", "quant_type": 0}, {"name": "Const_105", "shape": [2], "dtype": "int32", "qdtype": "int32", "quant_type": 0}, {"name": "Const_104", "shape": [], "dtype": "int32", "qdtype": "int32", "quant_type": 0}], "__proxied": true}]}